…
I0307 17:06:47.213413 28053 net.cpp:294] The NetState phase (0) differed from the phase (1) specified by a rule in layer Accuracy1
I0307 17:06:47.213903 28053 net.cpp:51] Initializing net from parameters: 
name: "cifar10_resnet20"
state {
  phase: TRAIN
  level: 0
  stage: ""
}
layer {
  name: "cifar"
  type: "Data"
  top: "data"
  top: "label"
  include {
    phase: TRAIN
  }
  transform_param {
    mirror: true
    crop_size: 32
    mean_file: "examples/cifar10/mean.binaryproto"
  }
  data_param {
    source: "examples/cifar10/cifar10_train_lmdb"
    batch_size: 128
    backend: LMDB
  }
}
layer {
  name: "Convolution1"
  type: "Convolution"
  bottom: "data"
  top: "Convolution1"
  param {
    lr_mult: 1
    decay_mult: 1
  }
  param {
    lr_mult: 2
    decay_mult: 0
  }
  convolution_param {
    num_output: 16
    pad: 1
    kernel_size: 3
    stride: 1
    weight_filler {
      type: "msra"
    }
    bias_filler {
      type: "constant"
      value: 0
    }
  }
}
layer {
  name: "BatchNorm1"
  type: "BatchNorm"
  bottom: "Convolution1"
  top: "Convolution1"
  param {
    lr_mult: 0
    decay_mult: 0
  }
  param {
    lr_mult: 0
    decay_mult: 0
  }
  param {
    lr_mult: 0
    decay_mult: 0
  }
}
layer {
  name: "Scale1"
  type: "Scale"
  bottom: "Convolution1"
  top: "Convolution1"
  scale_param {
    bias_term: true
  }
}
layer {
  name: "ReLU1"
  type: "ReLU"
  bottom: "Convolution1"
  top: "Convolution1"
}
layer {
  name: "Convolution2"
  type: "Convolution"
  bottom: "Convolution1"
  top: "Convolution2"
  param {
    lr_mult: 1
    decay_mult: 1
  }
  param {
    lr_mult: 2
    decay_mult: 0
  }
  convolution_param {
    num_output: 16
    pad: 1
    kernel_size: 3
    stride: 1
    weight_filler {
      type: "msra"
    }
    bias_filler {
      type: "constant"
      value: 0
    }
  }
}
layer {
  name: "BatchNorm2"
  type: "BatchNorm"
  bottom: "Convolution2"
  top: "Convolution2"
  param {
    lr_mult: 0
    decay_mult: 0
  }
  param {
    lr_mult: 0
    decay_mult: 0
  }
  param {
    lr_mult: 0
    decay_mult: 0
  }
}
layer {
  name: "Scale2"
  type: "Scale"
  bottom: "Convolution2"
  top: "Convolution2"
  scale_param {
    bias_term: true
  }
}
layer {
  name: "ReLU2"
  type: "ReLU"
  bottom: "Convolution2"
  top: "Convolution2"
}
layer {
  name: "Convolution3"
  type: "Convolution"
  bottom: "Convolution2"
  top: "Convolution3"
  param {
    lr_mult: 1
    decay_mult: 1
  }
  param {
    lr_mult: 2
    decay_mult: 0
  }
  convolution_param {
    num_output: 16
    pad: 1
    kernel_size: 3
    stride: 1
    weight_filler {
      type: "msra"
    }
    bias_filler {
      type: "constant"
      value: 0
    }
  }
}
layer {
  name: "BatchNorm3"
  type: "BatchNorm"
  bottom: "Convolution3"
  top: "Convolution3"
  param {
    lr_mult: 0
    decay_mult: 0
  }
  param {
    lr_mult: 0
    decay_mult: 0
  }
  param {
    lr_mult: 0
    decay_mult: 0
  }
}
layer {
  name: "Scale3"
  type: "Scale"
  bottom: "Convolution3"
  top: "Convolution3"
  scale_param {
    bias_term: true
  }
}
layer {
  name: "Eltwise1"
  type: "Eltwise"
  bottom: "Convolution1"
  bottom: "Convolution3"
  top: "Eltwise1"
  eltwise_param {
    operation: SUM
  }
}
layer {
  name: "ReLU3"
  type: "ReLU"
  bottom: "Eltwise1"
  top: "Eltwise1"
}
layer {
  name: "Convolution4"
  type: "Convolution"
  bottom: "Eltwise1"
  top: "Convolution4"
  param {
    lr_mult: 1
    decay_mult: 1
  }
  param {
    lr_mult: 2
    decay_mult: 0
  }
  convolution_param {
    num_output: 16
    pad: 1
    kernel_size: 3
    stride: 1
    weight_filler {
      type: "msra"
    }
    bias_filler {
      type: "constant"
      value: 0
    }
  }
}
layer {
  name: "BatchNorm4"
  type: "BatchNorm"
  bottom: "Convolution4"
  top: "Convolution4"
  param {
    lr_mult: 0
    decay_mult: 0
  }
  param {
    lr_mult: 0
    decay_mult: 0
  }
  param {
    lr_mult: 0
    decay_mult: 0
  }
}
layer {
  name: "Scale4"
  type: "Scale"
  bottom: "Convolution4"
  top: "Convolution4"
  scale_param {
    bias_term: true
  }
}
layer {
  name: "ReLU4"
  type: "ReLU"
  bottom: "Convolution4"
  top: "Convolution4"
}
layer {
  name: "Convolution5"
  type: "Convolution"
  bottom: "Convolution4"
  top: "Convolution5"
  param {
    lr_mult: 1
    decay_mult: 1
  }
  param {
    lr_mult: 2
    decay_mult: 0
  }
  convolution_param {
    num_output: 16
    pad: 1
    kernel_size: 3
    stride: 1
    weight_filler {
      type: "msra"
    }
    bias_filler {
      type: "constant"
      value: 0
    }
  }
}
layer {
  name: "BatchNorm5"
  type: "BatchNorm"
  bottom: "Convolution5"
  top: "Convolution5"
  param {
    lr_mult: 0
    decay_mult: 0
  }
  param {
    lr_mult: 0
    decay_mult: 0
  }
  param {
    lr_mult: 0
    decay_mult: 0
  }
}
layer {
  name: "Scale5"
  type: "Scale"
  bottom: "Convolution5"
  top: "Convolution5"
  scale_param {
    bias_term: true
  }
}
layer {
  name: "Eltwise2"
  type: "Eltwise"
  bottom: "Eltwise1"
  bottom: "Convolution5"
  top: "Eltwise2"
  eltwise_param {
    operation: SUM
  }
}
layer {
  name: "ReLU5"
  type: "ReLU"
  bottom: "Eltwise2"
  top: "Eltwise2"
}
layer {
  name: "Convolution6"
  type: "Convolution"
  bottom: "Eltwise2"
  top: "Convolution6"
  param {
    lr_mult: 1
    decay_mult: 1
  }
  param {
    lr_mult: 2
    decay_mult: 0
  }
  convolution_param {
    num_output: 16
    pad: 1
    kernel_size: 3
    stride: 1
    weight_filler {
      type: "msra"
    }
    bias_filler {
      type: "constant"
      value: 0
    }
  }
}
layer {
  name: "BatchNorm6"
  type: "BatchNorm"
  bottom: "Convolution6"
  top: "Convolution6"
  param {
    lr_mult: 0
    decay_mult: 0
  }
  param {
    lr_mult: 0
    decay_mult: 0
  }
  param {
    lr_mult: 0
    decay_mult: 0
  }
}
layer {
  name: "Scale6"
  type: "Scale"
  bottom: "Convolution6"
  top: "Convolution6"
  scale_param {
    bias_term: true
  }
}
layer {
  name: "ReLU6"
  type: "ReLU"
  bottom: "Convolution6"
  top: "Convolution6"
}
layer {
  name: "Convolution7"
  type: "Convolution"
  bottom: "Convolution6"
  top: "Convolution7"
  param {
    lr_mult: 1
    decay_mult: 1
  }
  param {
    lr_mult: 2
    decay_mult: 0
  }
  convolution_param {
    num_output: 16
    pad: 1
    kernel_size: 3
    stride: 1
    weight_filler {
      type: "msra"
    }
    bias_filler {
      type: "constant"
      value: 0
    }
  }
}
layer {
  name: "BatchNorm7"
  type: "BatchNorm"
  bottom: "Convolution7"
  top: "Convolution7"
  param {
    lr_mult: 0
    decay_mult: 0
  }
  param {
    lr_mult: 0
    decay_mult: 0
  }
  param {
    lr_mult: 0
    decay_mult: 0
  }
}
layer {
  name: "Scale7"
  type: "Scale"
  bottom: "Convolution7"
  top: "Convolution7"
  scale_param {
    bias_term: true
  }
}
layer {
  name: "Eltwise3"
  type: "Eltwise"
  bottom: "Eltwise2"
  bottom: "Convolution7"
  top: "Eltwise3"
  eltwise_param {
    operation: SUM
  }
}
layer {
  name: "ReLU7"
  type: "ReLU"
  bottom: "Eltwise3"
  top: "Eltwise3"
}
layer {
  name: "Convolution8"
  type: "Convolution"
  bottom: "Eltwise3"
  top: "Convolution8"
  param {
    lr_mult: 1
    decay_mult: 1
  }
  param {
    lr_mult: 2
    decay_mult: 0
  }
  convolution_param {
    num_output: 32
    pad: 0
    kernel_size: 1
    stride: 2
    weight_filler {
      type: "msra"
    }
    bias_filler {
      type: "constant"
      value: 0
    }
  }
}
layer {
  name: "BatchNorm8"
  type: "BatchNorm"
  bottom: "Convolution8"
  top: "Convolution8"
  param {
    lr_mult: 0
    decay_mult: 0
  }
  param {
    lr_mult: 0
    decay_mult: 0
  }
  param {
    lr_mult: 0
    decay_mult: 0
  }
}
layer {
  name: "Scale8"
  type: "Scale"
  bottom: "Convolution8"
  top: "Convolution8"
  scale_param {
    bias_term: true
  }
}
layer {
  name: "Convolution9"
  type: "Convolution"
  bottom: "Eltwise3"
  top: "Convolution9"
  param {
    lr_mult: 1
    decay_mult: 1
  }
  param {
    lr_mult: 2
    decay_mult: 0
  }
  convolution_param {
    num_output: 32
    pad: 1
    kernel_size: 3
    stride: 2
    weight_filler {
      type: "msra"
    }
    bias_filler {
      type: "constant"
      value: 0
    }
  }
}
layer {
  name: "BatchNorm9"
  type: "BatchNorm"
  bottom: "Convolution9"
  top: "Convolution9"
  param {
    lr_mult: 0
    decay_mult: 0
  }
  param {
    lr_mult: 0
    decay_mult: 0
  }
  param {
    lr_mult: 0
    decay_mult: 0
  }
}
layer {
  name: "Scale9"
  type: "Scale"
  bottom: "Convolution9"
  top: "Convolution9"
  scale_param {
    bias_term: true
  }
}
layer {
  name: "ReLU8"
  type: "ReLU"
  bottom: "Convolution9"
  top: "Convolution9"
}
layer {
  name: "Convolution10"
  type: "Convolution"
  bottom: "Convolution9"
  top: "Convolution10"
  param {
    lr_mult: 1
    decay_mult: 1
  }
  param {
    lr_mult: 2
    decay_mult: 0
  }
  convolution_param {
    num_output: 32
    pad: 1
    kernel_size: 3
    stride: 1
    weight_filler {
      type: "msra"
    }
    bias_filler {
      type: "constant"
      value: 0
    }
  }
}
layer {
  name: "BatchNorm10"
  type: "BatchNorm"
  bottom: "Convolution10"
  top: "Convolution10"
  param {
    lr_mult: 0
    decay_mult: 0
  }
  param {
    lr_mult: 0
    decay_mult: 0
  }
  param {
    lr_mult: 0
    decay_mult: 0
  }
}
layer {
  name: "Scale10"
  type: "Scale"
  bottom: "Convolution10"
  top: "Convolution10"
  scale_param {
    bias_term: true
  }
}
layer {
  name: "Eltwise4"
  type: "Eltwise"
  bottom: "Convolution8"
  bottom: "Convolution10"
  top: "Eltwise4"
  eltwise_param {
    operation: SUM
  }
}
layer {
  name: "ReLU9"
  type: "ReLU"
  bottom: "Eltwise4"
  top: "Eltwise4"
}
layer {
  name: "Convolution11"
  type: "Convolution"
  bottom: "Eltwise4"
  top: "Convolution11"
  param {
    lr_mult: 1
    decay_mult: 1
  }
  param {
    lr_mult: 2
    decay_mult: 0
  }
  convolution_param {
    num_output: 32
    pad: 1
    kernel_size: 3
    stride: 1
    weight_filler {
      type: "msra"
    }
    bias_filler {
      type: "constant"
      value: 0
    }
  }
}
layer {
  name: "BatchNorm11"
  type: "BatchNorm"
  bottom: "Convolution11"
  top: "Convolution11"
  param {
    lr_mult: 0
    decay_mult: 0
  }
  param {
    lr_mult: 0
    decay_mult: 0
  }
  param {
    lr_mult: 0
    decay_mult: 0
  }
}
layer {
  name: "Scale11"
  type: "Scale"
  bottom: "Convolution11"
  top: "Convolution11"
  scale_param {
    bias_term: true
  }
}
layer {
  name: "ReLU10"
  type: "ReLU"
  bottom: "Convolution11"
  top: "Convolution11"
}
layer {
  name: "Convolution12"
  type: "Convolution"
  bottom: "Convolution11"
  top: "Convolution12"
  param {
    lr_mult: 1
    decay_mult: 1
  }
  param {
    lr_mult: 2
    decay_mult: 0
  }
  convolution_param {
    num_output: 32
    pad: 1
    kernel_size: 3
    stride: 1
    weight_filler {
      type: "msra"
    }
    bias_filler {
      type: "constant"
      value: 0
    }
  }
}
layer {
  name: "BatchNorm12"
  type: "BatchNorm"
  bottom: "Convolution12"
  top: "Convolution12"
  param {
    lr_mult: 0
    decay_mult: 0
  }
  param {
    lr_mult: 0
    decay_mult: 0
  }
  param {
    lr_mult: 0
    decay_mult: 0
  }
}
layer {
  name: "Scale12"
  type: "Scale"
  bottom: "Convolution12"
  top: "Convolution12"
  scale_param {
    bias_term: true
  }
}
layer {
  name: "Eltwise5"
  type: "Eltwise"
  bottom: "Eltwise4"
  bottom: "Convolution12"
  top: "Eltwise5"
  eltwise_param {
    operation: SUM
  }
}
layer {
  name: "ReLU11"
  type: "ReLU"
  bottom: "Eltwise5"
  top: "Eltwise5"
}
layer {
  name: "Convolution13"
  type: "Convolution"
  bottom: "Eltwise5"
  top: "Convolution13"
  param {
    lr_mult: 1
    decay_mult: 1
  }
  param {
    lr_mult: 2
    decay_mult: 0
  }
  convolution_param {
    num_output: 32
    pad: 1
    kernel_size: 3
    stride: 1
    weight_filler {
      type: "msra"
    }
    bias_filler {
      type: "constant"
      value: 0
    }
  }
}
layer {
  name: "BatchNorm13"
  type: "BatchNorm"
  bottom: "Convolution13"
  top: "Convolution13"
  param {
    lr_mult: 0
    decay_mult: 0
  }
  param {
    lr_mult: 0
    decay_mult: 0
  }
  param {
    lr_mult: 0
    decay_mult: 0
  }
}
layer {
  name: "Scale13"
  type: "Scale"
  bottom: "Convolution13"
  top: "Convolution13"
  scale_param {
    bias_term: true
  }
}
layer {
  name: "ReLU12"
  type: "ReLU"
  bottom: "Convolution13"
  top: "Convolution13"
}
layer {
  name: "Convolution14"
  type: "Convolution"
  bottom: "Convolution13"
  top: "Convolution14"
  param {
    lr_mult: 1
    decay_mult: 1
  }
  param {
    lr_mult: 2
    decay_mult: 0
  }
  convolution_param {
    num_output: 32
    pad: 1
    kernel_size: 3
    stride: 1
    weight_filler {
      type: "msra"
    }
    bias_filler {
      type: "constant"
      value: 0
    }
  }
}
layer {
  name: "BatchNorm14"
  type: "BatchNorm"
  bottom: "Convolution14"
  top: "Convolution14"
  param {
    lr_mult: 0
    decay_mult: 0
  }
  param {
    lr_mult: 0
    decay_mult: 0
  }
  param {
    lr_mult: 0
    decay_mult: 0
  }
}
layer {
  name: "Scale14"
  type: "Scale"
  bottom: "Convolution14"
  top: "Convolution14"
  scale_param {
    bias_term: true
  }
}
layer {
  name: "Eltwise6"
  type: "Eltwise"
  bottom: "Eltwise5"
  bottom: "Convolution14"
  top: "Eltwise6"
  eltwise_param {
    operation: SUM
  }
}
layer {
  name: "ReLU13"
  type: "ReLU"
  bottom: "Eltwise6"
  top: "Eltwise6"
}
layer {
  name: "Convolution15"
  type: "Convolution"
  bottom: "Eltwise6"
  top: "Convolution15"
  param {
    lr_mult: 1
    decay_mult: 1
  }
  param {
    lr_mult: 2
    decay_mult: 0
  }
  convolution_param {
    num_output: 64
    pad: 0
    kernel_size: 1
    stride: 2
    weight_filler {
      type: "msra"
    }
    bias_filler {
      type: "constant"
      value: 0
    }
  }
}
layer {
  name: "BatchNorm15"
  type: "BatchNorm"
  bottom: "Convolution15"
  top: "Convolution15"
  param {
    lr_mult: 0
    decay_mult: 0
  }
  param {
    lr_mult: 0
    decay_mult: 0
  }
  param {
    lr_mult: 0
    decay_mult: 0
  }
}
layer {
  name: "Scale15"
  type: "Scale"
  bottom: "Convolution15"
  top: "Convolution15"
  scale_param {
    bias_term: true
  }
}
layer {
  name: "Convolution16"
  type: "Convolution"
  bottom: "Eltwise6"
  top: "Convolution16"
  param {
    lr_mult: 1
    decay_mult: 1
  }
  param {
    lr_mult: 2
    decay_mult: 0
  }
  convolution_param {
    num_output: 64
    pad: 1
    kernel_size: 3
    stride: 2
    weight_filler {
      type: "msra"
    }
    bias_filler {
      type: "constant"
      value: 0
    }
  }
}
layer {
  name: "BatchNorm16"
  type: "BatchNorm"
  bottom: "Convolution16"
  top: "Convolution16"
  param {
    lr_mult: 0
    decay_mult: 0
  }
  param {
    lr_mult: 0
    decay_mult: 0
  }
  param {
    lr_mult: 0
    decay_mult: 0
  }
}
layer {
  name: "Scale16"
  type: "Scale"
  bottom: "Convolution16"
  top: "Convolution16"
  scale_param {
    bias_term: true
  }
}
layer {
  name: "ReLU14"
  type: "ReLU"
  bottom: "Convolution16"
  top: "Convolution16"
}
layer {
  name: "Convolution17"
  type: "Convolution"
  bottom: "Convolution16"
  top: "Convolution17"
  param {
    lr_mult: 1
    decay_mult: 1
  }
  param {
    lr_mult: 2
    decay_mult: 0
  }
  convolution_param {
    num_output: 64
    pad: 1
    kernel_size: 3
    stride: 1
    weight_filler {
      type: "msra"
    }
    bias_filler {
      type: "constant"
      value: 0
    }
  }
}
layer {
  name: "BatchNorm17"
  type: "BatchNorm"
  bottom: "Convolution17"
  top: "Convolution17"
  param {
    lr_mult: 0
    decay_mult: 0
  }
  param {
    lr_mult: 0
    decay_mult: 0
  }
  param {
    lr_mult: 0
    decay_mult: 0
  }
}
layer {
  name: "Scale17"
  type: "Scale"
  bottom: "Convolution17"
  top: "Convolution17"
  scale_param {
    bias_term: true
  }
}
layer {
  name: "Eltwise7"
  type: "Eltwise"
  bottom: "Convolution15"
  bottom: "Convolution17"
  top: "Eltwise7"
  eltwise_param {
    operation: SUM
  }
}
layer {
  name: "ReLU15"
  type: "ReLU"
  bottom: "Eltwise7"
  top: "Eltwise7"
}
layer {
  name: "Convolution18"
  type: "Convolution"
  bottom: "Eltwise7"
  top: "Convolution18"
  param {
    lr_mult: 1
    decay_mult: 1
  }
  param {
    lr_mult: 2
    decay_mult: 0
  }
  convolution_param {
    num_output: 64
    pad: 1
    kernel_size: 3
    stride: 1
    weight_filler {
      type: "msra"
    }
    bias_filler {
      type: "constant"
      value: 0
    }
  }
}
layer {
  name: "BatchNorm18"
  type: "BatchNorm"
  bottom: "Convolution18"
  top: "Convolution18"
  param {
    lr_mult: 0
    decay_mult: 0
  }
  param {
    lr_mult: 0
    decay_mult: 0
  }
  param {
    lr_mult: 0
    decay_mult: 0
  }
}
layer {
  name: "Scale18"
  type: "Scale"
  bottom: "Convolution18"
  top: "Convolution18"
  scale_param {
    bias_term: true
  }
}
layer {
  name: "ReLU16"
  type: "ReLU"
  bottom: "Convolution18"
  top: "Convolution18"
}
layer {
  name: "Convolution19"
  type: "Convolution"
  bottom: "Convolution18"
  top: "Convolution19"
  param {
    lr_mult: 1
    decay_mult: 1
  }
  param {
    lr_mult: 2
    decay_mult: 0
  }
  convolution_param {
    num_output: 64
    pad: 1
    kernel_size: 3
    stride: 1
    weight_filler {
      type: "msra"
    }
    bias_filler {
      type: "constant"
      value: 0
    }
  }
}
layer {
  name: "BatchNorm19"
  type: "BatchNorm"
  bottom: "Convolution19"
  top: "Convolution19"
  param {
    lr_mult: 0
    decay_mult: 0
  }
  param {
    lr_mult: 0
    decay_mult: 0
  }
  param {
    lr_mult: 0
    decay_mult: 0
  }
}
layer {
  name: "Scale19"
  type: "Scale"
  bottom: "Convolution19"
  top: "Convolution19"
  scale_param {
    bias_term: true
  }
}
layer {
  name: "Eltwise8"
  type: "Eltwise"
  bottom: "Eltwise7"
  bottom: "Convolution19"
  top: "Eltwise8"
  eltwise_param {
    operation: SUM
  }
}
layer {
  name: "ReLU17"
  type: "ReLU"
  bottom: "Eltwise8"
  top: "Eltwise8"
}
layer {
  name: "Convolution20"
  type: "Convolution"
  bottom: "Eltwise8"
  top: "Convolution20"
  param {
    lr_mult: 1
    decay_mult: 1
  }
  param {
    lr_mult: 2
    decay_mult: 0
  }
  convolution_param {
    num_output: 64
    pad: 1
    kernel_size: 3
    stride: 1
    weight_filler {
      type: "msra"
    }
    bias_filler {
      type: "constant"
      value: 0
    }
  }
}
layer {
  name: "BatchNorm20"
  type: "BatchNorm"
  bottom: "Convolution20"
  top: "Convolution20"
  param {
    lr_mult: 0
    decay_mult: 0
  }
  param {
    lr_mult: 0
    decay_mult: 0
  }
  param {
    lr_mult: 0
    decay_mult: 0
  }
}
layer {
  name: "Scale20"
  type: "Scale"
  bottom: "Convolution20"
  top: "Convolution20"
  scale_param {
    bias_term: true
  }
}
layer {
  name: "ReLU18"
  type: "ReLU"
  bottom: "Convolution20"
  top: "Convolution20"
}
layer {
  name: "Convolution21"
  type: "Convolution"
  bottom: "Convolution20"
  top: "Convolution21"
  param {
    lr_mult: 1
    decay_mult: 1
  }
  param {
    lr_mult: 2
    decay_mult: 0
  }
  convolution_param {
    num_output: 64
    pad: 1
    kernel_size: 3
    stride: 1
    weight_filler {
      type: "msra"
    }
    bias_filler {
      type: "constant"
      value: 0
    }
  }
}
layer {
  name: "BatchNorm21"
  type: "BatchNorm"
  bottom: "Convolution21"
  top: "Convolution21"
  param {
    lr_mult: 0
    decay_mult: 0
  }
  param {
    lr_mult: 0
    decay_mult: 0
  }
  param {
    lr_mult: 0
    decay_mult: 0
  }
}
layer {
  name: "Scale21"
  type: "Scale"
  bottom: "Convolution21"
  top: "Convolution21"
  scale_param {
    bias_term: true
  }
}
layer {
  name: "Eltwise9"
  type: "Eltwise"
  bottom: "Eltwise8"
  bottom: "Convolution21"
  top: "Eltwise9"
  eltwise_param {
    operation: SUM
  }
}
layer {
  name: "ReLU19"
  type: "ReLU"
  bottom: "Eltwise9"
  top: "Eltwise9"
}
layer {
  name: "Pooling1"
  type: "Pooling"
  bottom: "Eltwise9"
  top: "Pooling1"
  pooling_param {
    pool: AVE
    global_pooling: true
  }
}
layer {
  name: "InnerProduct1"
  type: "InnerProduct"
  bottom: "Pooling1"
  top: "InnerProduct1"
  param {
    lr_mult: 1
    decay_mult: 1
  }
  param {
    lr_mult: 2
    decay_mult: 1
  }
  inner_product_param {
    num_output: 10
    weight_filler {
      type: "msra"
    }
    bias_filler {
      type: "constant"
      value: 0
    }
  }
}
layer {
  name: "SoftmaxWithLoss1"
  type: "SoftmaxWithLoss"
  bottom: "InnerProduct1"
  bottom: "label"
  top: "SoftmaxWithLoss1"
}
I0307 17:06:47.214258 28053 layer_factory.hpp:77] Creating layer cifar
I0307 17:06:47.214370 28053 db_lmdb.cpp:35] Opened lmdb examples/cifar10/cifar10_train_lmdb
I0307 17:06:47.214397 28053 net.cpp:84] Creating Layer cifar
I0307 17:06:47.214407 28053 net.cpp:380] cifar -> data
I0307 17:06:47.214427 28053 net.cpp:380] cifar -> label
I0307 17:06:47.214442 28053 data_transformer.cpp:25] Loading mean file from: examples/cifar10/mean.binaryproto
I0307 17:06:47.216598 28053 data_layer.cpp:45] output data size: 128,3,32,32
I0307 17:06:47.224714 28053 net.cpp:122] Setting up cifar
I0307 17:06:47.224743 28053 net.cpp:129] Top shape: 128 3 32 32 (393216)
I0307 17:06:47.224753 28053 net.cpp:129] Top shape: 128 (128)
I0307 17:06:47.224758 28053 net.cpp:137] Memory required for data: 1573376
I0307 17:06:47.224771 28053 layer_factory.hpp:77] Creating layer Convolution1
I0307 17:06:47.224807 28053 net.cpp:84] Creating Layer Convolution1
I0307 17:06:47.224817 28053 net.cpp:406] Convolution1 <- data
I0307 17:06:47.224835 28053 net.cpp:380] Convolution1 -> Convolution1
I0307 17:06:47.902432 28053 net.cpp:122] Setting up Convolution1
I0307 17:06:47.902462 28053 net.cpp:129] Top shape: 128 16 32 32 (2097152)
I0307 17:06:47.902467 28053 net.cpp:137] Memory required for data: 9961984
I0307 17:06:47.902487 28053 layer_factory.hpp:77] Creating layer BatchNorm1
I0307 17:06:47.902498 28053 net.cpp:84] Creating Layer BatchNorm1
I0307 17:06:47.902503 28053 net.cpp:406] BatchNorm1 <- Convolution1
I0307 17:06:47.902509 28053 net.cpp:367] BatchNorm1 -> Convolution1 (in-place)
I0307 17:06:47.902716 28053 net.cpp:122] Setting up BatchNorm1
I0307 17:06:47.902724 28053 net.cpp:129] Top shape: 128 16 32 32 (2097152)
I0307 17:06:47.902727 28053 net.cpp:137] Memory required for data: 18350592
I0307 17:06:47.902737 28053 layer_factory.hpp:77] Creating layer Scale1
I0307 17:06:47.902745 28053 net.cpp:84] Creating Layer Scale1
I0307 17:06:47.902748 28053 net.cpp:406] Scale1 <- Convolution1
I0307 17:06:47.902753 28053 net.cpp:367] Scale1 -> Convolution1 (in-place)
I0307 17:06:47.902793 28053 layer_factory.hpp:77] Creating layer Scale1
I0307 17:06:47.902909 28053 net.cpp:122] Setting up Scale1
I0307 17:06:47.902916 28053 net.cpp:129] Top shape: 128 16 32 32 (2097152)
I0307 17:06:47.902920 28053 net.cpp:137] Memory required for data: 26739200
I0307 17:06:47.902925 28053 layer_factory.hpp:77] Creating layer ReLU1
I0307 17:06:47.902932 28053 net.cpp:84] Creating Layer ReLU1
I0307 17:06:47.902935 28053 net.cpp:406] ReLU1 <- Convolution1
I0307 17:06:47.902940 28053 net.cpp:367] ReLU1 -> Convolution1 (in-place)
I0307 17:06:47.903475 28053 net.cpp:122] Setting up ReLU1
I0307 17:06:47.903487 28053 net.cpp:129] Top shape: 128 16 32 32 (2097152)
I0307 17:06:47.903491 28053 net.cpp:137] Memory required for data: 35127808
I0307 17:06:47.903496 28053 layer_factory.hpp:77] Creating layer Convolution1_ReLU1_0_split
I0307 17:06:47.903503 28053 net.cpp:84] Creating Layer Convolution1_ReLU1_0_split
I0307 17:06:47.903507 28053 net.cpp:406] Convolution1_ReLU1_0_split <- Convolution1
I0307 17:06:47.903512 28053 net.cpp:380] Convolution1_ReLU1_0_split -> Convolution1_ReLU1_0_split_0
I0307 17:06:47.903520 28053 net.cpp:380] Convolution1_ReLU1_0_split -> Convolution1_ReLU1_0_split_1
I0307 17:06:47.903587 28053 net.cpp:122] Setting up Convolution1_ReLU1_0_split
I0307 17:06:47.903595 28053 net.cpp:129] Top shape: 128 16 32 32 (2097152)
I0307 17:06:47.903600 28053 net.cpp:129] Top shape: 128 16 32 32 (2097152)
I0307 17:06:47.903604 28053 net.cpp:137] Memory required for data: 51905024
I0307 17:06:47.903607 28053 layer_factory.hpp:77] Creating layer Convolution2
I0307 17:06:47.903622 28053 net.cpp:84] Creating Layer Convolution2
I0307 17:06:47.903627 28053 net.cpp:406] Convolution2 <- Convolution1_ReLU1_0_split_0
I0307 17:06:47.903635 28053 net.cpp:380] Convolution2 -> Convolution2
I0307 17:06:47.906483 28053 net.cpp:122] Setting up Convolution2
I0307 17:06:47.906499 28053 net.cpp:129] Top shape: 128 16 32 32 (2097152)
I0307 17:06:47.906505 28053 net.cpp:137] Memory required for data: 60293632
I0307 17:06:47.906514 28053 layer_factory.hpp:77] Creating layer BatchNorm2
I0307 17:06:47.906522 28053 net.cpp:84] Creating Layer BatchNorm2
I0307 17:06:47.906525 28053 net.cpp:406] BatchNorm2 <- Convolution2
I0307 17:06:47.906533 28053 net.cpp:367] BatchNorm2 -> Convolution2 (in-place)
I0307 17:06:47.906744 28053 net.cpp:122] Setting up BatchNorm2
I0307 17:06:47.906754 28053 net.cpp:129] Top shape: 128 16 32 32 (2097152)
I0307 17:06:47.906756 28053 net.cpp:137] Memory required for data: 68682240
I0307 17:06:47.906764 28053 layer_factory.hpp:77] Creating layer Scale2
I0307 17:06:47.906771 28053 net.cpp:84] Creating Layer Scale2
I0307 17:06:47.906775 28053 net.cpp:406] Scale2 <- Convolution2
I0307 17:06:47.906780 28053 net.cpp:367] Scale2 -> Convolution2 (in-place)
I0307 17:06:47.906816 28053 layer_factory.hpp:77] Creating layer Scale2
I0307 17:06:47.906929 28053 net.cpp:122] Setting up Scale2
I0307 17:06:47.906939 28053 net.cpp:129] Top shape: 128 16 32 32 (2097152)
I0307 17:06:47.906942 28053 net.cpp:137] Memory required for data: 77070848
I0307 17:06:47.906947 28053 layer_factory.hpp:77] Creating layer ReLU2
I0307 17:06:47.906953 28053 net.cpp:84] Creating Layer ReLU2
I0307 17:06:47.906956 28053 net.cpp:406] ReLU2 <- Convolution2
I0307 17:06:47.906960 28053 net.cpp:367] ReLU2 -> Convolution2 (in-place)
I0307 17:06:47.907536 28053 net.cpp:122] Setting up ReLU2
I0307 17:06:47.907548 28053 net.cpp:129] Top shape: 128 16 32 32 (2097152)
I0307 17:06:47.907552 28053 net.cpp:137] Memory required for data: 85459456
I0307 17:06:47.907554 28053 layer_factory.hpp:77] Creating layer Convolution3
I0307 17:06:47.907567 28053 net.cpp:84] Creating Layer Convolution3
I0307 17:06:47.907570 28053 net.cpp:406] Convolution3 <- Convolution2
I0307 17:06:47.907578 28053 net.cpp:380] Convolution3 -> Convolution3
I0307 17:06:47.910055 28053 net.cpp:122] Setting up Convolution3
I0307 17:06:47.910073 28053 net.cpp:129] Top shape: 128 16 32 32 (2097152)
I0307 17:06:47.910075 28053 net.cpp:137] Memory required for data: 93848064
I0307 17:06:47.910082 28053 layer_factory.hpp:77] Creating layer BatchNorm3
I0307 17:06:47.910090 28053 net.cpp:84] Creating Layer BatchNorm3
I0307 17:06:47.910094 28053 net.cpp:406] BatchNorm3 <- Convolution3
I0307 17:06:47.910099 28053 net.cpp:367] BatchNorm3 -> Convolution3 (in-place)
I0307 17:06:47.910308 28053 net.cpp:122] Setting up BatchNorm3
I0307 17:06:47.910317 28053 net.cpp:129] Top shape: 128 16 32 32 (2097152)
I0307 17:06:47.910320 28053 net.cpp:137] Memory required for data: 102236672
I0307 17:06:47.910331 28053 layer_factory.hpp:77] Creating layer Scale3
I0307 17:06:47.910336 28053 net.cpp:84] Creating Layer Scale3
I0307 17:06:47.910341 28053 net.cpp:406] Scale3 <- Convolution3
I0307 17:06:47.910346 28053 net.cpp:367] Scale3 -> Convolution3 (in-place)
I0307 17:06:47.910385 28053 layer_factory.hpp:77] Creating layer Scale3
I0307 17:06:47.910502 28053 net.cpp:122] Setting up Scale3
I0307 17:06:47.910511 28053 net.cpp:129] Top shape: 128 16 32 32 (2097152)
I0307 17:06:47.910513 28053 net.cpp:137] Memory required for data: 110625280
I0307 17:06:47.910519 28053 layer_factory.hpp:77] Creating layer Eltwise1
I0307 17:06:47.910527 28053 net.cpp:84] Creating Layer Eltwise1
I0307 17:06:47.910544 28053 net.cpp:406] Eltwise1 <- Convolution1_ReLU1_0_split_1
I0307 17:06:47.910549 28053 net.cpp:406] Eltwise1 <- Convolution3
I0307 17:06:47.910554 28053 net.cpp:380] Eltwise1 -> Eltwise1
I0307 17:06:47.910586 28053 net.cpp:122] Setting up Eltwise1
I0307 17:06:47.910594 28053 net.cpp:129] Top shape: 128 16 32 32 (2097152)
I0307 17:06:47.910598 28053 net.cpp:137] Memory required for data: 119013888
I0307 17:06:47.910601 28053 layer_factory.hpp:77] Creating layer ReLU3
I0307 17:06:47.910606 28053 net.cpp:84] Creating Layer ReLU3
I0307 17:06:47.910609 28053 net.cpp:406] ReLU3 <- Eltwise1
I0307 17:06:47.910615 28053 net.cpp:367] ReLU3 -> Eltwise1 (in-place)
I0307 17:06:47.911583 28053 net.cpp:122] Setting up ReLU3
I0307 17:06:47.911598 28053 net.cpp:129] Top shape: 128 16 32 32 (2097152)
I0307 17:06:47.911602 28053 net.cpp:137] Memory required for data: 127402496
I0307 17:06:47.911605 28053 layer_factory.hpp:77] Creating layer Eltwise1_ReLU3_0_split
I0307 17:06:47.911612 28053 net.cpp:84] Creating Layer Eltwise1_ReLU3_0_split
I0307 17:06:47.911615 28053 net.cpp:406] Eltwise1_ReLU3_0_split <- Eltwise1
I0307 17:06:47.911623 28053 net.cpp:380] Eltwise1_ReLU3_0_split -> Eltwise1_ReLU3_0_split_0
I0307 17:06:47.911633 28053 net.cpp:380] Eltwise1_ReLU3_0_split -> Eltwise1_ReLU3_0_split_1
I0307 17:06:47.911679 28053 net.cpp:122] Setting up Eltwise1_ReLU3_0_split
I0307 17:06:47.911689 28053 net.cpp:129] Top shape: 128 16 32 32 (2097152)
I0307 17:06:47.911692 28053 net.cpp:129] Top shape: 128 16 32 32 (2097152)
I0307 17:06:47.911695 28053 net.cpp:137] Memory required for data: 144179712
I0307 17:06:47.911698 28053 layer_factory.hpp:77] Creating layer Convolution4
I0307 17:06:47.911711 28053 net.cpp:84] Creating Layer Convolution4
I0307 17:06:47.911715 28053 net.cpp:406] Convolution4 <- Eltwise1_ReLU3_0_split_0
I0307 17:06:47.911723 28053 net.cpp:380] Convolution4 -> Convolution4
I0307 17:06:47.914194 28053 net.cpp:122] Setting up Convolution4
I0307 17:06:47.914211 28053 net.cpp:129] Top shape: 128 16 32 32 (2097152)
I0307 17:06:47.914213 28053 net.cpp:137] Memory required for data: 152568320
I0307 17:06:47.914221 28053 layer_factory.hpp:77] Creating layer BatchNorm4
I0307 17:06:47.914228 28053 net.cpp:84] Creating Layer BatchNorm4
I0307 17:06:47.914232 28053 net.cpp:406] BatchNorm4 <- Convolution4
I0307 17:06:47.914237 28053 net.cpp:367] BatchNorm4 -> Convolution4 (in-place)
I0307 17:06:47.914445 28053 net.cpp:122] Setting up BatchNorm4
I0307 17:06:47.914453 28053 net.cpp:129] Top shape: 128 16 32 32 (2097152)
I0307 17:06:47.914456 28053 net.cpp:137] Memory required for data: 160956928
I0307 17:06:47.914464 28053 layer_factory.hpp:77] Creating layer Scale4
I0307 17:06:47.914469 28053 net.cpp:84] Creating Layer Scale4
I0307 17:06:47.914472 28053 net.cpp:406] Scale4 <- Convolution4
I0307 17:06:47.914477 28053 net.cpp:367] Scale4 -> Convolution4 (in-place)
I0307 17:06:47.914516 28053 layer_factory.hpp:77] Creating layer Scale4
I0307 17:06:47.914638 28053 net.cpp:122] Setting up Scale4
I0307 17:06:47.914645 28053 net.cpp:129] Top shape: 128 16 32 32 (2097152)
I0307 17:06:47.914649 28053 net.cpp:137] Memory required for data: 169345536
I0307 17:06:47.914654 28053 layer_factory.hpp:77] Creating layer ReLU4
I0307 17:06:47.914659 28053 net.cpp:84] Creating Layer ReLU4
I0307 17:06:47.914664 28053 net.cpp:406] ReLU4 <- Convolution4
I0307 17:06:47.914669 28053 net.cpp:367] ReLU4 -> Convolution4 (in-place)
I0307 17:06:47.915633 28053 net.cpp:122] Setting up ReLU4
I0307 17:06:47.915647 28053 net.cpp:129] Top shape: 128 16 32 32 (2097152)
I0307 17:06:47.915652 28053 net.cpp:137] Memory required for data: 177734144
I0307 17:06:47.915655 28053 layer_factory.hpp:77] Creating layer Convolution5
I0307 17:06:47.915666 28053 net.cpp:84] Creating Layer Convolution5
I0307 17:06:47.915670 28053 net.cpp:406] Convolution5 <- Convolution4
I0307 17:06:47.915678 28053 net.cpp:380] Convolution5 -> Convolution5
I0307 17:06:47.918203 28053 net.cpp:122] Setting up Convolution5
I0307 17:06:47.918222 28053 net.cpp:129] Top shape: 128 16 32 32 (2097152)
I0307 17:06:47.918241 28053 net.cpp:137] Memory required for data: 186122752
I0307 17:06:47.918248 28053 layer_factory.hpp:77] Creating layer BatchNorm5
I0307 17:06:47.918256 28053 net.cpp:84] Creating Layer BatchNorm5
I0307 17:06:47.918260 28053 net.cpp:406] BatchNorm5 <- Convolution5
I0307 17:06:47.918267 28053 net.cpp:367] BatchNorm5 -> Convolution5 (in-place)
I0307 17:06:47.918488 28053 net.cpp:122] Setting up BatchNorm5
I0307 17:06:47.918498 28053 net.cpp:129] Top shape: 128 16 32 32 (2097152)
I0307 17:06:47.918500 28053 net.cpp:137] Memory required for data: 194511360
I0307 17:06:47.918511 28053 layer_factory.hpp:77] Creating layer Scale5
I0307 17:06:47.918519 28053 net.cpp:84] Creating Layer Scale5
I0307 17:06:47.918524 28053 net.cpp:406] Scale5 <- Convolution5
I0307 17:06:47.918529 28053 net.cpp:367] Scale5 -> Convolution5 (in-place)
I0307 17:06:47.918576 28053 layer_factory.hpp:77] Creating layer Scale5
I0307 17:06:47.918699 28053 net.cpp:122] Setting up Scale5
I0307 17:06:47.918709 28053 net.cpp:129] Top shape: 128 16 32 32 (2097152)
I0307 17:06:47.918711 28053 net.cpp:137] Memory required for data: 202899968
I0307 17:06:47.918717 28053 layer_factory.hpp:77] Creating layer Eltwise2
I0307 17:06:47.918723 28053 net.cpp:84] Creating Layer Eltwise2
I0307 17:06:47.918726 28053 net.cpp:406] Eltwise2 <- Eltwise1_ReLU3_0_split_1
I0307 17:06:47.918731 28053 net.cpp:406] Eltwise2 <- Convolution5
I0307 17:06:47.918738 28053 net.cpp:380] Eltwise2 -> Eltwise2
I0307 17:06:47.918763 28053 net.cpp:122] Setting up Eltwise2
I0307 17:06:47.918771 28053 net.cpp:129] Top shape: 128 16 32 32 (2097152)
I0307 17:06:47.918773 28053 net.cpp:137] Memory required for data: 211288576
I0307 17:06:47.918777 28053 layer_factory.hpp:77] Creating layer ReLU5
I0307 17:06:47.918782 28053 net.cpp:84] Creating Layer ReLU5
I0307 17:06:47.918786 28053 net.cpp:406] ReLU5 <- Eltwise2
I0307 17:06:47.918790 28053 net.cpp:367] ReLU5 -> Eltwise2 (in-place)
I0307 17:06:47.919407 28053 net.cpp:122] Setting up ReLU5
I0307 17:06:47.919420 28053 net.cpp:129] Top shape: 128 16 32 32 (2097152)
I0307 17:06:47.919425 28053 net.cpp:137] Memory required for data: 219677184
I0307 17:06:47.919427 28053 layer_factory.hpp:77] Creating layer Eltwise2_ReLU5_0_split
I0307 17:06:47.919436 28053 net.cpp:84] Creating Layer Eltwise2_ReLU5_0_split
I0307 17:06:47.919440 28053 net.cpp:406] Eltwise2_ReLU5_0_split <- Eltwise2
I0307 17:06:47.919445 28053 net.cpp:380] Eltwise2_ReLU5_0_split -> Eltwise2_ReLU5_0_split_0
I0307 17:06:47.919457 28053 net.cpp:380] Eltwise2_ReLU5_0_split -> Eltwise2_ReLU5_0_split_1
I0307 17:06:47.919510 28053 net.cpp:122] Setting up Eltwise2_ReLU5_0_split
I0307 17:06:47.919520 28053 net.cpp:129] Top shape: 128 16 32 32 (2097152)
I0307 17:06:47.919526 28053 net.cpp:129] Top shape: 128 16 32 32 (2097152)
I0307 17:06:47.919530 28053 net.cpp:137] Memory required for data: 236454400
I0307 17:06:47.919536 28053 layer_factory.hpp:77] Creating layer Convolution6
I0307 17:06:47.919551 28053 net.cpp:84] Creating Layer Convolution6
I0307 17:06:47.919556 28053 net.cpp:406] Convolution6 <- Eltwise2_ReLU5_0_split_0
I0307 17:06:47.919564 28053 net.cpp:380] Convolution6 -> Convolution6
I0307 17:06:47.922500 28053 net.cpp:122] Setting up Convolution6
I0307 17:06:47.922519 28053 net.cpp:129] Top shape: 128 16 32 32 (2097152)
I0307 17:06:47.922523 28053 net.cpp:137] Memory required for data: 244843008
I0307 17:06:47.922531 28053 layer_factory.hpp:77] Creating layer BatchNorm6
I0307 17:06:47.922544 28053 net.cpp:84] Creating Layer BatchNorm6
I0307 17:06:47.922549 28053 net.cpp:406] BatchNorm6 <- Convolution6
I0307 17:06:47.922556 28053 net.cpp:367] BatchNorm6 -> Convolution6 (in-place)
I0307 17:06:47.922781 28053 net.cpp:122] Setting up BatchNorm6
I0307 17:06:47.922791 28053 net.cpp:129] Top shape: 128 16 32 32 (2097152)
I0307 17:06:47.922794 28053 net.cpp:137] Memory required for data: 253231616
I0307 17:06:47.922803 28053 layer_factory.hpp:77] Creating layer Scale6
I0307 17:06:47.922811 28053 net.cpp:84] Creating Layer Scale6
I0307 17:06:47.922816 28053 net.cpp:406] Scale6 <- Convolution6
I0307 17:06:47.922839 28053 net.cpp:367] Scale6 -> Convolution6 (in-place)
I0307 17:06:47.922888 28053 layer_factory.hpp:77] Creating layer Scale6
I0307 17:06:47.923017 28053 net.cpp:122] Setting up Scale6
I0307 17:06:47.923027 28053 net.cpp:129] Top shape: 128 16 32 32 (2097152)
I0307 17:06:47.923029 28053 net.cpp:137] Memory required for data: 261620224
I0307 17:06:47.923036 28053 layer_factory.hpp:77] Creating layer ReLU6
I0307 17:06:47.923044 28053 net.cpp:84] Creating Layer ReLU6
I0307 17:06:47.923048 28053 net.cpp:406] ReLU6 <- Convolution6
I0307 17:06:47.923056 28053 net.cpp:367] ReLU6 -> Convolution6 (in-place)
I0307 17:06:47.923647 28053 net.cpp:122] Setting up ReLU6
I0307 17:06:47.923660 28053 net.cpp:129] Top shape: 128 16 32 32 (2097152)
I0307 17:06:47.923663 28053 net.cpp:137] Memory required for data: 270008832
I0307 17:06:47.923667 28053 layer_factory.hpp:77] Creating layer Convolution7
I0307 17:06:47.923682 28053 net.cpp:84] Creating Layer Convolution7
I0307 17:06:47.923688 28053 net.cpp:406] Convolution7 <- Convolution6
I0307 17:06:47.923698 28053 net.cpp:380] Convolution7 -> Convolution7
I0307 17:06:47.926234 28053 net.cpp:122] Setting up Convolution7
I0307 17:06:47.926250 28053 net.cpp:129] Top shape: 128 16 32 32 (2097152)
I0307 17:06:47.926254 28053 net.cpp:137] Memory required for data: 278397440
I0307 17:06:47.926264 28053 layer_factory.hpp:77] Creating layer BatchNorm7
I0307 17:06:47.926275 28053 net.cpp:84] Creating Layer BatchNorm7
I0307 17:06:47.926281 28053 net.cpp:406] BatchNorm7 <- Convolution7
I0307 17:06:47.926291 28053 net.cpp:367] BatchNorm7 -> Convolution7 (in-place)
I0307 17:06:47.926512 28053 net.cpp:122] Setting up BatchNorm7
I0307 17:06:47.926522 28053 net.cpp:129] Top shape: 128 16 32 32 (2097152)
I0307 17:06:47.926525 28053 net.cpp:137] Memory required for data: 286786048
I0307 17:06:47.926534 28053 layer_factory.hpp:77] Creating layer Scale7
I0307 17:06:47.926548 28053 net.cpp:84] Creating Layer Scale7
I0307 17:06:47.926555 28053 net.cpp:406] Scale7 <- Convolution7
I0307 17:06:47.926561 28053 net.cpp:367] Scale7 -> Convolution7 (in-place)
I0307 17:06:47.926607 28053 layer_factory.hpp:77] Creating layer Scale7
I0307 17:06:47.926738 28053 net.cpp:122] Setting up Scale7
I0307 17:06:47.926748 28053 net.cpp:129] Top shape: 128 16 32 32 (2097152)
I0307 17:06:47.926750 28053 net.cpp:137] Memory required for data: 295174656
I0307 17:06:47.926759 28053 layer_factory.hpp:77] Creating layer Eltwise3
I0307 17:06:47.926767 28053 net.cpp:84] Creating Layer Eltwise3
I0307 17:06:47.926772 28053 net.cpp:406] Eltwise3 <- Eltwise2_ReLU5_0_split_1
I0307 17:06:47.926779 28053 net.cpp:406] Eltwise3 <- Convolution7
I0307 17:06:47.926787 28053 net.cpp:380] Eltwise3 -> Eltwise3
I0307 17:06:47.926818 28053 net.cpp:122] Setting up Eltwise3
I0307 17:06:47.926827 28053 net.cpp:129] Top shape: 128 16 32 32 (2097152)
I0307 17:06:47.926831 28053 net.cpp:137] Memory required for data: 303563264
I0307 17:06:47.926834 28053 layer_factory.hpp:77] Creating layer ReLU7
I0307 17:06:47.926844 28053 net.cpp:84] Creating Layer ReLU7
I0307 17:06:47.926848 28053 net.cpp:406] ReLU7 <- Eltwise3
I0307 17:06:47.926854 28053 net.cpp:367] ReLU7 -> Eltwise3 (in-place)
I0307 17:06:47.927842 28053 net.cpp:122] Setting up ReLU7
I0307 17:06:47.927858 28053 net.cpp:129] Top shape: 128 16 32 32 (2097152)
I0307 17:06:47.927862 28053 net.cpp:137] Memory required for data: 311951872
I0307 17:06:47.927868 28053 layer_factory.hpp:77] Creating layer Eltwise3_ReLU7_0_split
I0307 17:06:47.927877 28053 net.cpp:84] Creating Layer Eltwise3_ReLU7_0_split
I0307 17:06:47.927882 28053 net.cpp:406] Eltwise3_ReLU7_0_split <- Eltwise3
I0307 17:06:47.927892 28053 net.cpp:380] Eltwise3_ReLU7_0_split -> Eltwise3_ReLU7_0_split_0
I0307 17:06:47.927903 28053 net.cpp:380] Eltwise3_ReLU7_0_split -> Eltwise3_ReLU7_0_split_1
I0307 17:06:47.927958 28053 net.cpp:122] Setting up Eltwise3_ReLU7_0_split
I0307 17:06:47.927966 28053 net.cpp:129] Top shape: 128 16 32 32 (2097152)
I0307 17:06:47.927971 28053 net.cpp:129] Top shape: 128 16 32 32 (2097152)
I0307 17:06:47.927990 28053 net.cpp:137] Memory required for data: 328729088
I0307 17:06:47.927994 28053 layer_factory.hpp:77] Creating layer Convolution8
I0307 17:06:47.928009 28053 net.cpp:84] Creating Layer Convolution8
I0307 17:06:47.928015 28053 net.cpp:406] Convolution8 <- Eltwise3_ReLU7_0_split_0
I0307 17:06:47.928025 28053 net.cpp:380] Convolution8 -> Convolution8
I0307 17:06:47.930583 28053 net.cpp:122] Setting up Convolution8
I0307 17:06:47.930599 28053 net.cpp:129] Top shape: 128 32 16 16 (1048576)
I0307 17:06:47.930603 28053 net.cpp:137] Memory required for data: 332923392
I0307 17:06:47.930610 28053 layer_factory.hpp:77] Creating layer BatchNorm8
I0307 17:06:47.930621 28053 net.cpp:84] Creating Layer BatchNorm8
I0307 17:06:47.930626 28053 net.cpp:406] BatchNorm8 <- Convolution8
I0307 17:06:47.930634 28053 net.cpp:367] BatchNorm8 -> Convolution8 (in-place)
I0307 17:06:47.930852 28053 net.cpp:122] Setting up BatchNorm8
I0307 17:06:47.930862 28053 net.cpp:129] Top shape: 128 32 16 16 (1048576)
I0307 17:06:47.930866 28053 net.cpp:137] Memory required for data: 337117696
I0307 17:06:47.930876 28053 layer_factory.hpp:77] Creating layer Scale8
I0307 17:06:47.930882 28053 net.cpp:84] Creating Layer Scale8
I0307 17:06:47.930886 28053 net.cpp:406] Scale8 <- Convolution8
I0307 17:06:47.930894 28053 net.cpp:367] Scale8 -> Convolution8 (in-place)
I0307 17:06:47.930939 28053 layer_factory.hpp:77] Creating layer Scale8
I0307 17:06:47.931071 28053 net.cpp:122] Setting up Scale8
I0307 17:06:47.931079 28053 net.cpp:129] Top shape: 128 32 16 16 (1048576)
I0307 17:06:47.931082 28053 net.cpp:137] Memory required for data: 341312000
I0307 17:06:47.931090 28053 layer_factory.hpp:77] Creating layer Convolution9
I0307 17:06:47.931103 28053 net.cpp:84] Creating Layer Convolution9
I0307 17:06:47.931110 28053 net.cpp:406] Convolution9 <- Eltwise3_ReLU7_0_split_1
I0307 17:06:47.931120 28053 net.cpp:380] Convolution9 -> Convolution9
I0307 17:06:47.934938 28053 net.cpp:122] Setting up Convolution9
I0307 17:06:47.934965 28053 net.cpp:129] Top shape: 128 32 16 16 (1048576)
I0307 17:06:47.934973 28053 net.cpp:137] Memory required for data: 345506304
I0307 17:06:47.934984 28053 layer_factory.hpp:77] Creating layer BatchNorm9
I0307 17:06:47.934998 28053 net.cpp:84] Creating Layer BatchNorm9
I0307 17:06:47.935007 28053 net.cpp:406] BatchNorm9 <- Convolution9
I0307 17:06:47.935017 28053 net.cpp:367] BatchNorm9 -> Convolution9 (in-place)
I0307 17:06:47.935293 28053 net.cpp:122] Setting up BatchNorm9
I0307 17:06:47.935308 28053 net.cpp:129] Top shape: 128 32 16 16 (1048576)
I0307 17:06:47.935313 28053 net.cpp:137] Memory required for data: 349700608
I0307 17:06:47.935324 28053 layer_factory.hpp:77] Creating layer Scale9
I0307 17:06:47.935333 28053 net.cpp:84] Creating Layer Scale9
I0307 17:06:47.935338 28053 net.cpp:406] Scale9 <- Convolution9
I0307 17:06:47.935343 28053 net.cpp:367] Scale9 -> Convolution9 (in-place)
I0307 17:06:47.935389 28053 layer_factory.hpp:77] Creating layer Scale9
I0307 17:06:47.935514 28053 net.cpp:122] Setting up Scale9
I0307 17:06:47.935523 28053 net.cpp:129] Top shape: 128 32 16 16 (1048576)
I0307 17:06:47.935526 28053 net.cpp:137] Memory required for data: 353894912
I0307 17:06:47.935533 28053 layer_factory.hpp:77] Creating layer ReLU8
I0307 17:06:47.935539 28053 net.cpp:84] Creating Layer ReLU8
I0307 17:06:47.935544 28053 net.cpp:406] ReLU8 <- Convolution9
I0307 17:06:47.935547 28053 net.cpp:367] ReLU8 -> Convolution9 (in-place)
I0307 17:06:47.936640 28053 net.cpp:122] Setting up ReLU8
I0307 17:06:47.936655 28053 net.cpp:129] Top shape: 128 32 16 16 (1048576)
I0307 17:06:47.936659 28053 net.cpp:137] Memory required for data: 358089216
I0307 17:06:47.936663 28053 layer_factory.hpp:77] Creating layer Convolution10
I0307 17:06:47.936676 28053 net.cpp:84] Creating Layer Convolution10
I0307 17:06:47.936681 28053 net.cpp:406] Convolution10 <- Convolution9
I0307 17:06:47.936688 28053 net.cpp:380] Convolution10 -> Convolution10
I0307 17:06:47.939419 28053 net.cpp:122] Setting up Convolution10
I0307 17:06:47.939435 28053 net.cpp:129] Top shape: 128 32 16 16 (1048576)
I0307 17:06:47.939453 28053 net.cpp:137] Memory required for data: 362283520
I0307 17:06:47.939471 28053 layer_factory.hpp:77] Creating layer BatchNorm10
I0307 17:06:47.939481 28053 net.cpp:84] Creating Layer BatchNorm10
I0307 17:06:47.939486 28053 net.cpp:406] BatchNorm10 <- Convolution10
I0307 17:06:47.939492 28053 net.cpp:367] BatchNorm10 -> Convolution10 (in-place)
I0307 17:06:47.939704 28053 net.cpp:122] Setting up BatchNorm10
I0307 17:06:47.939713 28053 net.cpp:129] Top shape: 128 32 16 16 (1048576)
I0307 17:06:47.939716 28053 net.cpp:137] Memory required for data: 366477824
I0307 17:06:47.939723 28053 layer_factory.hpp:77] Creating layer Scale10
I0307 17:06:47.939730 28053 net.cpp:84] Creating Layer Scale10
I0307 17:06:47.939734 28053 net.cpp:406] Scale10 <- Convolution10
I0307 17:06:47.939739 28053 net.cpp:367] Scale10 -> Convolution10 (in-place)
I0307 17:06:47.939779 28053 layer_factory.hpp:77] Creating layer Scale10
I0307 17:06:47.939918 28053 net.cpp:122] Setting up Scale10
I0307 17:06:47.939929 28053 net.cpp:129] Top shape: 128 32 16 16 (1048576)
I0307 17:06:47.939932 28053 net.cpp:137] Memory required for data: 370672128
I0307 17:06:47.939939 28053 layer_factory.hpp:77] Creating layer Eltwise4
I0307 17:06:47.939946 28053 net.cpp:84] Creating Layer Eltwise4
I0307 17:06:47.939950 28053 net.cpp:406] Eltwise4 <- Convolution8
I0307 17:06:47.939955 28053 net.cpp:406] Eltwise4 <- Convolution10
I0307 17:06:47.939960 28053 net.cpp:380] Eltwise4 -> Eltwise4
I0307 17:06:47.939985 28053 net.cpp:122] Setting up Eltwise4
I0307 17:06:47.939991 28053 net.cpp:129] Top shape: 128 32 16 16 (1048576)
I0307 17:06:47.939996 28053 net.cpp:137] Memory required for data: 374866432
I0307 17:06:47.940001 28053 layer_factory.hpp:77] Creating layer ReLU9
I0307 17:06:47.940009 28053 net.cpp:84] Creating Layer ReLU9
I0307 17:06:47.940014 28053 net.cpp:406] ReLU9 <- Eltwise4
I0307 17:06:47.940021 28053 net.cpp:367] ReLU9 -> Eltwise4 (in-place)
I0307 17:06:47.940624 28053 net.cpp:122] Setting up ReLU9
I0307 17:06:47.940637 28053 net.cpp:129] Top shape: 128 32 16 16 (1048576)
I0307 17:06:47.940640 28053 net.cpp:137] Memory required for data: 379060736
I0307 17:06:47.940644 28053 layer_factory.hpp:77] Creating layer Eltwise4_ReLU9_0_split
I0307 17:06:47.940654 28053 net.cpp:84] Creating Layer Eltwise4_ReLU9_0_split
I0307 17:06:47.940660 28053 net.cpp:406] Eltwise4_ReLU9_0_split <- Eltwise4
I0307 17:06:47.940675 28053 net.cpp:380] Eltwise4_ReLU9_0_split -> Eltwise4_ReLU9_0_split_0
I0307 17:06:47.940685 28053 net.cpp:380] Eltwise4_ReLU9_0_split -> Eltwise4_ReLU9_0_split_1
I0307 17:06:47.940743 28053 net.cpp:122] Setting up Eltwise4_ReLU9_0_split
I0307 17:06:47.940752 28053 net.cpp:129] Top shape: 128 32 16 16 (1048576)
I0307 17:06:47.940757 28053 net.cpp:129] Top shape: 128 32 16 16 (1048576)
I0307 17:06:47.940760 28053 net.cpp:137] Memory required for data: 387449344
I0307 17:06:47.940765 28053 layer_factory.hpp:77] Creating layer Convolution11
I0307 17:06:47.940788 28053 net.cpp:84] Creating Layer Convolution11
I0307 17:06:47.940794 28053 net.cpp:406] Convolution11 <- Eltwise4_ReLU9_0_split_0
I0307 17:06:47.940804 28053 net.cpp:380] Convolution11 -> Convolution11
I0307 17:06:47.944017 28053 net.cpp:122] Setting up Convolution11
I0307 17:06:47.944033 28053 net.cpp:129] Top shape: 128 32 16 16 (1048576)
I0307 17:06:47.944037 28053 net.cpp:137] Memory required for data: 391643648
I0307 17:06:47.944046 28053 layer_factory.hpp:77] Creating layer BatchNorm11
I0307 17:06:47.944056 28053 net.cpp:84] Creating Layer BatchNorm11
I0307 17:06:47.944062 28053 net.cpp:406] BatchNorm11 <- Convolution11
I0307 17:06:47.944067 28053 net.cpp:367] BatchNorm11 -> Convolution11 (in-place)
I0307 17:06:47.944283 28053 net.cpp:122] Setting up BatchNorm11
I0307 17:06:47.944293 28053 net.cpp:129] Top shape: 128 32 16 16 (1048576)
I0307 17:06:47.944295 28053 net.cpp:137] Memory required for data: 395837952
I0307 17:06:47.944303 28053 layer_factory.hpp:77] Creating layer Scale11
I0307 17:06:47.944310 28053 net.cpp:84] Creating Layer Scale11
I0307 17:06:47.944325 28053 net.cpp:406] Scale11 <- Convolution11
I0307 17:06:47.944331 28053 net.cpp:367] Scale11 -> Convolution11 (in-place)
I0307 17:06:47.944372 28053 layer_factory.hpp:77] Creating layer Scale11
I0307 17:06:47.944499 28053 net.cpp:122] Setting up Scale11
I0307 17:06:47.944507 28053 net.cpp:129] Top shape: 128 32 16 16 (1048576)
I0307 17:06:47.944510 28053 net.cpp:137] Memory required for data: 400032256
I0307 17:06:47.944516 28053 layer_factory.hpp:77] Creating layer ReLU10
I0307 17:06:47.944523 28053 net.cpp:84] Creating Layer ReLU10
I0307 17:06:47.944526 28053 net.cpp:406] ReLU10 <- Convolution11
I0307 17:06:47.944531 28053 net.cpp:367] ReLU10 -> Convolution11 (in-place)
I0307 17:06:47.945132 28053 net.cpp:122] Setting up ReLU10
I0307 17:06:47.945147 28053 net.cpp:129] Top shape: 128 32 16 16 (1048576)
I0307 17:06:47.945150 28053 net.cpp:137] Memory required for data: 404226560
I0307 17:06:47.945154 28053 layer_factory.hpp:77] Creating layer Convolution12
I0307 17:06:47.945165 28053 net.cpp:84] Creating Layer Convolution12
I0307 17:06:47.945170 28053 net.cpp:406] Convolution12 <- Convolution11
I0307 17:06:47.945178 28053 net.cpp:380] Convolution12 -> Convolution12
I0307 17:06:47.947933 28053 net.cpp:122] Setting up Convolution12
I0307 17:06:47.947952 28053 net.cpp:129] Top shape: 128 32 16 16 (1048576)
I0307 17:06:47.947954 28053 net.cpp:137] Memory required for data: 408420864
I0307 17:06:47.947962 28053 layer_factory.hpp:77] Creating layer BatchNorm12
I0307 17:06:47.947968 28053 net.cpp:84] Creating Layer BatchNorm12
I0307 17:06:47.947971 28053 net.cpp:406] BatchNorm12 <- Convolution12
I0307 17:06:47.947978 28053 net.cpp:367] BatchNorm12 -> Convolution12 (in-place)
I0307 17:06:47.948195 28053 net.cpp:122] Setting up BatchNorm12
I0307 17:06:47.948204 28053 net.cpp:129] Top shape: 128 32 16 16 (1048576)
I0307 17:06:47.948207 28053 net.cpp:137] Memory required for data: 412615168
I0307 17:06:47.948215 28053 layer_factory.hpp:77] Creating layer Scale12
I0307 17:06:47.948220 28053 net.cpp:84] Creating Layer Scale12
I0307 17:06:47.948223 28053 net.cpp:406] Scale12 <- Convolution12
I0307 17:06:47.948228 28053 net.cpp:367] Scale12 -> Convolution12 (in-place)
I0307 17:06:47.948267 28053 layer_factory.hpp:77] Creating layer Scale12
I0307 17:06:47.948393 28053 net.cpp:122] Setting up Scale12
I0307 17:06:47.948402 28053 net.cpp:129] Top shape: 128 32 16 16 (1048576)
I0307 17:06:47.948405 28053 net.cpp:137] Memory required for data: 416809472
I0307 17:06:47.948411 28053 layer_factory.hpp:77] Creating layer Eltwise5
I0307 17:06:47.948418 28053 net.cpp:84] Creating Layer Eltwise5
I0307 17:06:47.948423 28053 net.cpp:406] Eltwise5 <- Eltwise4_ReLU9_0_split_1
I0307 17:06:47.948428 28053 net.cpp:406] Eltwise5 <- Convolution12
I0307 17:06:47.948433 28053 net.cpp:380] Eltwise5 -> Eltwise5
I0307 17:06:47.948458 28053 net.cpp:122] Setting up Eltwise5
I0307 17:06:47.948465 28053 net.cpp:129] Top shape: 128 32 16 16 (1048576)
I0307 17:06:47.948468 28053 net.cpp:137] Memory required for data: 421003776
I0307 17:06:47.948472 28053 layer_factory.hpp:77] Creating layer ReLU11
I0307 17:06:47.948477 28053 net.cpp:84] Creating Layer ReLU11
I0307 17:06:47.948480 28053 net.cpp:406] ReLU11 <- Eltwise5
I0307 17:06:47.948484 28053 net.cpp:367] ReLU11 -> Eltwise5 (in-place)
I0307 17:06:47.949498 28053 net.cpp:122] Setting up ReLU11
I0307 17:06:47.949513 28053 net.cpp:129] Top shape: 128 32 16 16 (1048576)
I0307 17:06:47.949517 28053 net.cpp:137] Memory required for data: 425198080
I0307 17:06:47.949520 28053 layer_factory.hpp:77] Creating layer Eltwise5_ReLU11_0_split
I0307 17:06:47.949527 28053 net.cpp:84] Creating Layer Eltwise5_ReLU11_0_split
I0307 17:06:47.949530 28053 net.cpp:406] Eltwise5_ReLU11_0_split <- Eltwise5
I0307 17:06:47.949538 28053 net.cpp:380] Eltwise5_ReLU11_0_split -> Eltwise5_ReLU11_0_split_0
I0307 17:06:47.949548 28053 net.cpp:380] Eltwise5_ReLU11_0_split -> Eltwise5_ReLU11_0_split_1
I0307 17:06:47.949601 28053 net.cpp:122] Setting up Eltwise5_ReLU11_0_split
I0307 17:06:47.949610 28053 net.cpp:129] Top shape: 128 32 16 16 (1048576)
I0307 17:06:47.949626 28053 net.cpp:129] Top shape: 128 32 16 16 (1048576)
I0307 17:06:47.949630 28053 net.cpp:137] Memory required for data: 433586688
I0307 17:06:47.949633 28053 layer_factory.hpp:77] Creating layer Convolution13
I0307 17:06:47.949645 28053 net.cpp:84] Creating Layer Convolution13
I0307 17:06:47.949656 28053 net.cpp:406] Convolution13 <- Eltwise5_ReLU11_0_split_0
I0307 17:06:47.949663 28053 net.cpp:380] Convolution13 -> Convolution13
I0307 17:06:47.952370 28053 net.cpp:122] Setting up Convolution13
I0307 17:06:47.952386 28053 net.cpp:129] Top shape: 128 32 16 16 (1048576)
I0307 17:06:47.952390 28053 net.cpp:137] Memory required for data: 437780992
I0307 17:06:47.952397 28053 layer_factory.hpp:77] Creating layer BatchNorm13
I0307 17:06:47.952404 28053 net.cpp:84] Creating Layer BatchNorm13
I0307 17:06:47.952407 28053 net.cpp:406] BatchNorm13 <- Convolution13
I0307 17:06:47.952414 28053 net.cpp:367] BatchNorm13 -> Convolution13 (in-place)
I0307 17:06:47.952632 28053 net.cpp:122] Setting up BatchNorm13
I0307 17:06:47.952641 28053 net.cpp:129] Top shape: 128 32 16 16 (1048576)
I0307 17:06:47.952644 28053 net.cpp:137] Memory required for data: 441975296
I0307 17:06:47.952651 28053 layer_factory.hpp:77] Creating layer Scale13
I0307 17:06:47.952657 28053 net.cpp:84] Creating Layer Scale13
I0307 17:06:47.952661 28053 net.cpp:406] Scale13 <- Convolution13
I0307 17:06:47.952666 28053 net.cpp:367] Scale13 -> Convolution13 (in-place)
I0307 17:06:47.952704 28053 layer_factory.hpp:77] Creating layer Scale13
I0307 17:06:47.952848 28053 net.cpp:122] Setting up Scale13
I0307 17:06:47.952859 28053 net.cpp:129] Top shape: 128 32 16 16 (1048576)
I0307 17:06:47.952862 28053 net.cpp:137] Memory required for data: 446169600
I0307 17:06:47.952868 28053 layer_factory.hpp:77] Creating layer ReLU12
I0307 17:06:47.952877 28053 net.cpp:84] Creating Layer ReLU12
I0307 17:06:47.952880 28053 net.cpp:406] ReLU12 <- Convolution13
I0307 17:06:47.952885 28053 net.cpp:367] ReLU12 -> Convolution13 (in-place)
I0307 17:06:47.953478 28053 net.cpp:122] Setting up ReLU12
I0307 17:06:47.953490 28053 net.cpp:129] Top shape: 128 32 16 16 (1048576)
I0307 17:06:47.953495 28053 net.cpp:137] Memory required for data: 450363904
I0307 17:06:47.953497 28053 layer_factory.hpp:77] Creating layer Convolution14
I0307 17:06:47.953507 28053 net.cpp:84] Creating Layer Convolution14
I0307 17:06:47.953513 28053 net.cpp:406] Convolution14 <- Convolution13
I0307 17:06:47.953521 28053 net.cpp:380] Convolution14 -> Convolution14
I0307 17:06:47.956923 28053 net.cpp:122] Setting up Convolution14
I0307 17:06:47.956938 28053 net.cpp:129] Top shape: 128 32 16 16 (1048576)
I0307 17:06:47.956943 28053 net.cpp:137] Memory required for data: 454558208
I0307 17:06:47.956950 28053 layer_factory.hpp:77] Creating layer BatchNorm14
I0307 17:06:47.956964 28053 net.cpp:84] Creating Layer BatchNorm14
I0307 17:06:47.956969 28053 net.cpp:406] BatchNorm14 <- Convolution14
I0307 17:06:47.956975 28053 net.cpp:367] BatchNorm14 -> Convolution14 (in-place)
I0307 17:06:47.957202 28053 net.cpp:122] Setting up BatchNorm14
I0307 17:06:47.957211 28053 net.cpp:129] Top shape: 128 32 16 16 (1048576)
I0307 17:06:47.957214 28053 net.cpp:137] Memory required for data: 458752512
I0307 17:06:47.957221 28053 layer_factory.hpp:77] Creating layer Scale14
I0307 17:06:47.957228 28053 net.cpp:84] Creating Layer Scale14
I0307 17:06:47.957232 28053 net.cpp:406] Scale14 <- Convolution14
I0307 17:06:47.957238 28053 net.cpp:367] Scale14 -> Convolution14 (in-place)
I0307 17:06:47.957279 28053 layer_factory.hpp:77] Creating layer Scale14
I0307 17:06:47.957407 28053 net.cpp:122] Setting up Scale14
I0307 17:06:47.957415 28053 net.cpp:129] Top shape: 128 32 16 16 (1048576)
I0307 17:06:47.957418 28053 net.cpp:137] Memory required for data: 462946816
I0307 17:06:47.957424 28053 layer_factory.hpp:77] Creating layer Eltwise6
I0307 17:06:47.957432 28053 net.cpp:84] Creating Layer Eltwise6
I0307 17:06:47.957435 28053 net.cpp:406] Eltwise6 <- Eltwise5_ReLU11_0_split_1
I0307 17:06:47.957440 28053 net.cpp:406] Eltwise6 <- Convolution14
I0307 17:06:47.957458 28053 net.cpp:380] Eltwise6 -> Eltwise6
I0307 17:06:47.957486 28053 net.cpp:122] Setting up Eltwise6
I0307 17:06:47.957494 28053 net.cpp:129] Top shape: 128 32 16 16 (1048576)
I0307 17:06:47.957496 28053 net.cpp:137] Memory required for data: 467141120
I0307 17:06:47.957500 28053 layer_factory.hpp:77] Creating layer ReLU13
I0307 17:06:47.957505 28053 net.cpp:84] Creating Layer ReLU13
I0307 17:06:47.957509 28053 net.cpp:406] ReLU13 <- Eltwise6
I0307 17:06:47.957514 28053 net.cpp:367] ReLU13 -> Eltwise6 (in-place)
I0307 17:06:47.958112 28053 net.cpp:122] Setting up ReLU13
I0307 17:06:47.958124 28053 net.cpp:129] Top shape: 128 32 16 16 (1048576)
I0307 17:06:47.958127 28053 net.cpp:137] Memory required for data: 471335424
I0307 17:06:47.958132 28053 layer_factory.hpp:77] Creating layer Eltwise6_ReLU13_0_split
I0307 17:06:47.958137 28053 net.cpp:84] Creating Layer Eltwise6_ReLU13_0_split
I0307 17:06:47.958140 28053 net.cpp:406] Eltwise6_ReLU13_0_split <- Eltwise6
I0307 17:06:47.958148 28053 net.cpp:380] Eltwise6_ReLU13_0_split -> Eltwise6_ReLU13_0_split_0
I0307 17:06:47.958155 28053 net.cpp:380] Eltwise6_ReLU13_0_split -> Eltwise6_ReLU13_0_split_1
I0307 17:06:47.958206 28053 net.cpp:122] Setting up Eltwise6_ReLU13_0_split
I0307 17:06:47.958214 28053 net.cpp:129] Top shape: 128 32 16 16 (1048576)
I0307 17:06:47.958218 28053 net.cpp:129] Top shape: 128 32 16 16 (1048576)
I0307 17:06:47.958221 28053 net.cpp:137] Memory required for data: 479724032
I0307 17:06:47.958225 28053 layer_factory.hpp:77] Creating layer Convolution15
I0307 17:06:47.958235 28053 net.cpp:84] Creating Layer Convolution15
I0307 17:06:47.958238 28053 net.cpp:406] Convolution15 <- Eltwise6_ReLU13_0_split_0
I0307 17:06:47.958246 28053 net.cpp:380] Convolution15 -> Convolution15
I0307 17:06:47.960793 28053 net.cpp:122] Setting up Convolution15
I0307 17:06:47.960808 28053 net.cpp:129] Top shape: 128 64 8 8 (524288)
I0307 17:06:47.960811 28053 net.cpp:137] Memory required for data: 481821184
I0307 17:06:47.960819 28053 layer_factory.hpp:77] Creating layer BatchNorm15
I0307 17:06:47.960826 28053 net.cpp:84] Creating Layer BatchNorm15
I0307 17:06:47.960830 28053 net.cpp:406] BatchNorm15 <- Convolution15
I0307 17:06:47.960835 28053 net.cpp:367] BatchNorm15 -> Convolution15 (in-place)
I0307 17:06:47.961061 28053 net.cpp:122] Setting up BatchNorm15
I0307 17:06:47.961069 28053 net.cpp:129] Top shape: 128 64 8 8 (524288)
I0307 17:06:47.961073 28053 net.cpp:137] Memory required for data: 483918336
I0307 17:06:47.961081 28053 layer_factory.hpp:77] Creating layer Scale15
I0307 17:06:47.961087 28053 net.cpp:84] Creating Layer Scale15
I0307 17:06:47.961096 28053 net.cpp:406] Scale15 <- Convolution15
I0307 17:06:47.961100 28053 net.cpp:367] Scale15 -> Convolution15 (in-place)
I0307 17:06:47.961140 28053 layer_factory.hpp:77] Creating layer Scale15
I0307 17:06:47.961271 28053 net.cpp:122] Setting up Scale15
I0307 17:06:47.961278 28053 net.cpp:129] Top shape: 128 64 8 8 (524288)
I0307 17:06:47.961282 28053 net.cpp:137] Memory required for data: 486015488
I0307 17:06:47.961287 28053 layer_factory.hpp:77] Creating layer Convolution16
I0307 17:06:47.961298 28053 net.cpp:84] Creating Layer Convolution16
I0307 17:06:47.961303 28053 net.cpp:406] Convolution16 <- Eltwise6_ReLU13_0_split_1
I0307 17:06:47.961310 28053 net.cpp:380] Convolution16 -> Convolution16
I0307 17:06:47.966084 28053 net.cpp:122] Setting up Convolution16
I0307 17:06:47.966107 28053 net.cpp:129] Top shape: 128 64 8 8 (524288)
I0307 17:06:47.966111 28053 net.cpp:137] Memory required for data: 488112640
I0307 17:06:47.966120 28053 layer_factory.hpp:77] Creating layer BatchNorm16
I0307 17:06:47.966128 28053 net.cpp:84] Creating Layer BatchNorm16
I0307 17:06:47.966132 28053 net.cpp:406] BatchNorm16 <- Convolution16
I0307 17:06:47.966141 28053 net.cpp:367] BatchNorm16 -> Convolution16 (in-place)
I0307 17:06:47.966373 28053 net.cpp:122] Setting up BatchNorm16
I0307 17:06:47.966382 28053 net.cpp:129] Top shape: 128 64 8 8 (524288)
I0307 17:06:47.966385 28053 net.cpp:137] Memory required for data: 490209792
I0307 17:06:47.966408 28053 layer_factory.hpp:77] Creating layer Scale16
I0307 17:06:47.966415 28053 net.cpp:84] Creating Layer Scale16
I0307 17:06:47.966419 28053 net.cpp:406] Scale16 <- Convolution16
I0307 17:06:47.966424 28053 net.cpp:367] Scale16 -> Convolution16 (in-place)
I0307 17:06:47.966477 28053 layer_factory.hpp:77] Creating layer Scale16
I0307 17:06:47.966610 28053 net.cpp:122] Setting up Scale16
I0307 17:06:47.966619 28053 net.cpp:129] Top shape: 128 64 8 8 (524288)
I0307 17:06:47.966622 28053 net.cpp:137] Memory required for data: 492306944
I0307 17:06:47.966629 28053 layer_factory.hpp:77] Creating layer ReLU14
I0307 17:06:47.966637 28053 net.cpp:84] Creating Layer ReLU14
I0307 17:06:47.966642 28053 net.cpp:406] ReLU14 <- Convolution16
I0307 17:06:47.966647 28053 net.cpp:367] ReLU14 -> Convolution16 (in-place)
I0307 17:06:47.967279 28053 net.cpp:122] Setting up ReLU14
I0307 17:06:47.967293 28053 net.cpp:129] Top shape: 128 64 8 8 (524288)
I0307 17:06:47.967298 28053 net.cpp:137] Memory required for data: 494404096
I0307 17:06:47.967300 28053 layer_factory.hpp:77] Creating layer Convolution17
I0307 17:06:47.967314 28053 net.cpp:84] Creating Layer Convolution17
I0307 17:06:47.967319 28053 net.cpp:406] Convolution17 <- Convolution16
I0307 17:06:47.967326 28053 net.cpp:380] Convolution17 -> Convolution17
I0307 17:06:47.970706 28053 net.cpp:122] Setting up Convolution17
I0307 17:06:47.970723 28053 net.cpp:129] Top shape: 128 64 8 8 (524288)
I0307 17:06:47.970727 28053 net.cpp:137] Memory required for data: 496501248
I0307 17:06:47.970734 28053 layer_factory.hpp:77] Creating layer BatchNorm17
I0307 17:06:47.970742 28053 net.cpp:84] Creating Layer BatchNorm17
I0307 17:06:47.970746 28053 net.cpp:406] BatchNorm17 <- Convolution17
I0307 17:06:47.970752 28053 net.cpp:367] BatchNorm17 -> Convolution17 (in-place)
I0307 17:06:47.970978 28053 net.cpp:122] Setting up BatchNorm17
I0307 17:06:47.970986 28053 net.cpp:129] Top shape: 128 64 8 8 (524288)
I0307 17:06:47.970990 28053 net.cpp:137] Memory required for data: 498598400
I0307 17:06:47.970998 28053 layer_factory.hpp:77] Creating layer Scale17
I0307 17:06:47.971002 28053 net.cpp:84] Creating Layer Scale17
I0307 17:06:47.971006 28053 net.cpp:406] Scale17 <- Convolution17
I0307 17:06:47.971012 28053 net.cpp:367] Scale17 -> Convolution17 (in-place)
I0307 17:06:47.971053 28053 layer_factory.hpp:77] Creating layer Scale17
I0307 17:06:47.971187 28053 net.cpp:122] Setting up Scale17
I0307 17:06:47.971195 28053 net.cpp:129] Top shape: 128 64 8 8 (524288)
I0307 17:06:47.971199 28053 net.cpp:137] Memory required for data: 500695552
I0307 17:06:47.971204 28053 layer_factory.hpp:77] Creating layer Eltwise7
I0307 17:06:47.971211 28053 net.cpp:84] Creating Layer Eltwise7
I0307 17:06:47.971215 28053 net.cpp:406] Eltwise7 <- Convolution15
I0307 17:06:47.971220 28053 net.cpp:406] Eltwise7 <- Convolution17
I0307 17:06:47.971226 28053 net.cpp:380] Eltwise7 -> Eltwise7
I0307 17:06:47.971251 28053 net.cpp:122] Setting up Eltwise7
I0307 17:06:47.971259 28053 net.cpp:129] Top shape: 128 64 8 8 (524288)
I0307 17:06:47.971262 28053 net.cpp:137] Memory required for data: 502792704
I0307 17:06:47.971266 28053 layer_factory.hpp:77] Creating layer ReLU15
I0307 17:06:47.971271 28053 net.cpp:84] Creating Layer ReLU15
I0307 17:06:47.971276 28053 net.cpp:406] ReLU15 <- Eltwise7
I0307 17:06:47.971280 28053 net.cpp:367] ReLU15 -> Eltwise7 (in-place)
I0307 17:06:47.972354 28053 net.cpp:122] Setting up ReLU15
I0307 17:06:47.972370 28053 net.cpp:129] Top shape: 128 64 8 8 (524288)
I0307 17:06:47.972374 28053 net.cpp:137] Memory required for data: 504889856
I0307 17:06:47.972378 28053 layer_factory.hpp:77] Creating layer Eltwise7_ReLU15_0_split
I0307 17:06:47.972385 28053 net.cpp:84] Creating Layer Eltwise7_ReLU15_0_split
I0307 17:06:47.972389 28053 net.cpp:406] Eltwise7_ReLU15_0_split <- Eltwise7
I0307 17:06:47.972395 28053 net.cpp:380] Eltwise7_ReLU15_0_split -> Eltwise7_ReLU15_0_split_0
I0307 17:06:47.972404 28053 net.cpp:380] Eltwise7_ReLU15_0_split -> Eltwise7_ReLU15_0_split_1
I0307 17:06:47.972471 28053 net.cpp:122] Setting up Eltwise7_ReLU15_0_split
I0307 17:06:47.972481 28053 net.cpp:129] Top shape: 128 64 8 8 (524288)
I0307 17:06:47.972486 28053 net.cpp:129] Top shape: 128 64 8 8 (524288)
I0307 17:06:47.972488 28053 net.cpp:137] Memory required for data: 509084160
I0307 17:06:47.972491 28053 layer_factory.hpp:77] Creating layer Convolution18
I0307 17:06:47.972504 28053 net.cpp:84] Creating Layer Convolution18
I0307 17:06:47.972509 28053 net.cpp:406] Convolution18 <- Eltwise7_ReLU15_0_split_0
I0307 17:06:47.972517 28053 net.cpp:380] Convolution18 -> Convolution18
I0307 17:06:47.975845 28053 net.cpp:122] Setting up Convolution18
I0307 17:06:47.975862 28053 net.cpp:129] Top shape: 128 64 8 8 (524288)
I0307 17:06:47.975864 28053 net.cpp:137] Memory required for data: 511181312
I0307 17:06:47.975872 28053 layer_factory.hpp:77] Creating layer BatchNorm18
I0307 17:06:47.975880 28053 net.cpp:84] Creating Layer BatchNorm18
I0307 17:06:47.975884 28053 net.cpp:406] BatchNorm18 <- Convolution18
I0307 17:06:47.975890 28053 net.cpp:367] BatchNorm18 -> Convolution18 (in-place)
I0307 17:06:47.976125 28053 net.cpp:122] Setting up BatchNorm18
I0307 17:06:47.976133 28053 net.cpp:129] Top shape: 128 64 8 8 (524288)
I0307 17:06:47.976136 28053 net.cpp:137] Memory required for data: 513278464
I0307 17:06:47.976143 28053 layer_factory.hpp:77] Creating layer Scale18
I0307 17:06:47.976150 28053 net.cpp:84] Creating Layer Scale18
I0307 17:06:47.976153 28053 net.cpp:406] Scale18 <- Convolution18
I0307 17:06:47.976157 28053 net.cpp:367] Scale18 -> Convolution18 (in-place)
I0307 17:06:47.976198 28053 layer_factory.hpp:77] Creating layer Scale18
I0307 17:06:47.976331 28053 net.cpp:122] Setting up Scale18
I0307 17:06:47.976339 28053 net.cpp:129] Top shape: 128 64 8 8 (524288)
I0307 17:06:47.976342 28053 net.cpp:137] Memory required for data: 515375616
I0307 17:06:47.976348 28053 layer_factory.hpp:77] Creating layer ReLU16
I0307 17:06:47.976354 28053 net.cpp:84] Creating Layer ReLU16
I0307 17:06:47.976357 28053 net.cpp:406] ReLU16 <- Convolution18
I0307 17:06:47.976363 28053 net.cpp:367] ReLU16 -> Convolution18 (in-place)
I0307 17:06:47.977365 28053 net.cpp:122] Setting up ReLU16
I0307 17:06:47.977380 28053 net.cpp:129] Top shape: 128 64 8 8 (524288)
I0307 17:06:47.977383 28053 net.cpp:137] Memory required for data: 517472768
I0307 17:06:47.977387 28053 layer_factory.hpp:77] Creating layer Convolution19
I0307 17:06:47.977398 28053 net.cpp:84] Creating Layer Convolution19
I0307 17:06:47.977403 28053 net.cpp:406] Convolution19 <- Convolution18
I0307 17:06:47.977411 28053 net.cpp:380] Convolution19 -> Convolution19
I0307 17:06:47.980715 28053 net.cpp:122] Setting up Convolution19
I0307 17:06:47.980731 28053 net.cpp:129] Top shape: 128 64 8 8 (524288)
I0307 17:06:47.980734 28053 net.cpp:137] Memory required for data: 519569920
I0307 17:06:47.980741 28053 layer_factory.hpp:77] Creating layer BatchNorm19
I0307 17:06:47.980751 28053 net.cpp:84] Creating Layer BatchNorm19
I0307 17:06:47.980754 28053 net.cpp:406] BatchNorm19 <- Convolution19
I0307 17:06:47.980759 28053 net.cpp:367] BatchNorm19 -> Convolution19 (in-place)
I0307 17:06:47.981014 28053 net.cpp:122] Setting up BatchNorm19
I0307 17:06:47.981025 28053 net.cpp:129] Top shape: 128 64 8 8 (524288)
I0307 17:06:47.981029 28053 net.cpp:137] Memory required for data: 521667072
I0307 17:06:47.981051 28053 layer_factory.hpp:77] Creating layer Scale19
I0307 17:06:47.981060 28053 net.cpp:84] Creating Layer Scale19
I0307 17:06:47.981065 28053 net.cpp:406] Scale19 <- Convolution19
I0307 17:06:47.981070 28053 net.cpp:367] Scale19 -> Convolution19 (in-place)
I0307 17:06:47.981114 28053 layer_factory.hpp:77] Creating layer Scale19
I0307 17:06:47.981245 28053 net.cpp:122] Setting up Scale19
I0307 17:06:47.981254 28053 net.cpp:129] Top shape: 128 64 8 8 (524288)
I0307 17:06:47.981257 28053 net.cpp:137] Memory required for data: 523764224
I0307 17:06:47.981263 28053 layer_factory.hpp:77] Creating layer Eltwise8
I0307 17:06:47.981269 28053 net.cpp:84] Creating Layer Eltwise8
I0307 17:06:47.981287 28053 net.cpp:406] Eltwise8 <- Eltwise7_ReLU15_0_split_1
I0307 17:06:47.981292 28053 net.cpp:406] Eltwise8 <- Convolution19
I0307 17:06:47.981297 28053 net.cpp:380] Eltwise8 -> Eltwise8
I0307 17:06:47.981324 28053 net.cpp:122] Setting up Eltwise8
I0307 17:06:47.981333 28053 net.cpp:129] Top shape: 128 64 8 8 (524288)
I0307 17:06:47.981335 28053 net.cpp:137] Memory required for data: 525861376
I0307 17:06:47.981339 28053 layer_factory.hpp:77] Creating layer ReLU17
I0307 17:06:47.981344 28053 net.cpp:84] Creating Layer ReLU17
I0307 17:06:47.981348 28053 net.cpp:406] ReLU17 <- Eltwise8
I0307 17:06:47.981353 28053 net.cpp:367] ReLU17 -> Eltwise8 (in-place)
I0307 17:06:47.981958 28053 net.cpp:122] Setting up ReLU17
I0307 17:06:47.981971 28053 net.cpp:129] Top shape: 128 64 8 8 (524288)
I0307 17:06:47.981974 28053 net.cpp:137] Memory required for data: 527958528
I0307 17:06:47.981977 28053 layer_factory.hpp:77] Creating layer Eltwise8_ReLU17_0_split
I0307 17:06:47.981983 28053 net.cpp:84] Creating Layer Eltwise8_ReLU17_0_split
I0307 17:06:47.981987 28053 net.cpp:406] Eltwise8_ReLU17_0_split <- Eltwise8
I0307 17:06:47.981994 28053 net.cpp:380] Eltwise8_ReLU17_0_split -> Eltwise8_ReLU17_0_split_0
I0307 17:06:47.982002 28053 net.cpp:380] Eltwise8_ReLU17_0_split -> Eltwise8_ReLU17_0_split_1
I0307 17:06:47.982053 28053 net.cpp:122] Setting up Eltwise8_ReLU17_0_split
I0307 17:06:47.982060 28053 net.cpp:129] Top shape: 128 64 8 8 (524288)
I0307 17:06:47.982064 28053 net.cpp:129] Top shape: 128 64 8 8 (524288)
I0307 17:06:47.982067 28053 net.cpp:137] Memory required for data: 532152832
I0307 17:06:47.982070 28053 layer_factory.hpp:77] Creating layer Convolution20
I0307 17:06:47.982081 28053 net.cpp:84] Creating Layer Convolution20
I0307 17:06:47.982085 28053 net.cpp:406] Convolution20 <- Eltwise8_ReLU17_0_split_0
I0307 17:06:47.982093 28053 net.cpp:380] Convolution20 -> Convolution20
I0307 17:06:47.986279 28053 net.cpp:122] Setting up Convolution20
I0307 17:06:47.986299 28053 net.cpp:129] Top shape: 128 64 8 8 (524288)
I0307 17:06:47.986302 28053 net.cpp:137] Memory required for data: 534249984
I0307 17:06:47.986310 28053 layer_factory.hpp:77] Creating layer BatchNorm20
I0307 17:06:47.986320 28053 net.cpp:84] Creating Layer BatchNorm20
I0307 17:06:47.986323 28053 net.cpp:406] BatchNorm20 <- Convolution20
I0307 17:06:47.986328 28053 net.cpp:367] BatchNorm20 -> Convolution20 (in-place)
I0307 17:06:47.986567 28053 net.cpp:122] Setting up BatchNorm20
I0307 17:06:47.986575 28053 net.cpp:129] Top shape: 128 64 8 8 (524288)
I0307 17:06:47.986579 28053 net.cpp:137] Memory required for data: 536347136
I0307 17:06:47.986587 28053 layer_factory.hpp:77] Creating layer Scale20
I0307 17:06:47.986593 28053 net.cpp:84] Creating Layer Scale20
I0307 17:06:47.986595 28053 net.cpp:406] Scale20 <- Convolution20
I0307 17:06:47.986599 28053 net.cpp:367] Scale20 -> Convolution20 (in-place)
I0307 17:06:47.986644 28053 layer_factory.hpp:77] Creating layer Scale20
I0307 17:06:47.986779 28053 net.cpp:122] Setting up Scale20
I0307 17:06:47.986789 28053 net.cpp:129] Top shape: 128 64 8 8 (524288)
I0307 17:06:47.986793 28053 net.cpp:137] Memory required for data: 538444288
I0307 17:06:47.986799 28053 layer_factory.hpp:77] Creating layer ReLU18
I0307 17:06:47.986804 28053 net.cpp:84] Creating Layer ReLU18
I0307 17:06:47.986807 28053 net.cpp:406] ReLU18 <- Convolution20
I0307 17:06:47.986812 28053 net.cpp:367] ReLU18 -> Convolution20 (in-place)
I0307 17:06:47.987417 28053 net.cpp:122] Setting up ReLU18
I0307 17:06:47.987430 28053 net.cpp:129] Top shape: 128 64 8 8 (524288)
I0307 17:06:47.987435 28053 net.cpp:137] Memory required for data: 540541440
I0307 17:06:47.987438 28053 layer_factory.hpp:77] Creating layer Convolution21
I0307 17:06:47.987450 28053 net.cpp:84] Creating Layer Convolution21
I0307 17:06:47.987454 28053 net.cpp:406] Convolution21 <- Convolution20
I0307 17:06:47.987460 28053 net.cpp:380] Convolution21 -> Convolution21
I0307 17:06:47.990883 28053 net.cpp:122] Setting up Convolution21
I0307 17:06:47.990902 28053 net.cpp:129] Top shape: 128 64 8 8 (524288)
I0307 17:06:47.990921 28053 net.cpp:137] Memory required for data: 542638592
I0307 17:06:47.990928 28053 layer_factory.hpp:77] Creating layer BatchNorm21
I0307 17:06:47.990934 28053 net.cpp:84] Creating Layer BatchNorm21
I0307 17:06:47.990938 28053 net.cpp:406] BatchNorm21 <- Convolution21
I0307 17:06:47.990945 28053 net.cpp:367] BatchNorm21 -> Convolution21 (in-place)
I0307 17:06:47.991181 28053 net.cpp:122] Setting up BatchNorm21
I0307 17:06:47.991191 28053 net.cpp:129] Top shape: 128 64 8 8 (524288)
I0307 17:06:47.991194 28053 net.cpp:137] Memory required for data: 544735744
I0307 17:06:47.991201 28053 layer_factory.hpp:77] Creating layer Scale21
I0307 17:06:47.991206 28053 net.cpp:84] Creating Layer Scale21
I0307 17:06:47.991210 28053 net.cpp:406] Scale21 <- Convolution21
I0307 17:06:47.991216 28053 net.cpp:367] Scale21 -> Convolution21 (in-place)
I0307 17:06:47.991256 28053 layer_factory.hpp:77] Creating layer Scale21
I0307 17:06:47.991392 28053 net.cpp:122] Setting up Scale21
I0307 17:06:47.991402 28053 net.cpp:129] Top shape: 128 64 8 8 (524288)
I0307 17:06:47.991405 28053 net.cpp:137] Memory required for data: 546832896
I0307 17:06:47.991411 28053 layer_factory.hpp:77] Creating layer Eltwise9
I0307 17:06:47.991417 28053 net.cpp:84] Creating Layer Eltwise9
I0307 17:06:47.991422 28053 net.cpp:406] Eltwise9 <- Eltwise8_ReLU17_0_split_1
I0307 17:06:47.991426 28053 net.cpp:406] Eltwise9 <- Convolution21
I0307 17:06:47.991432 28053 net.cpp:380] Eltwise9 -> Eltwise9
I0307 17:06:47.991458 28053 net.cpp:122] Setting up Eltwise9
I0307 17:06:47.991468 28053 net.cpp:129] Top shape: 128 64 8 8 (524288)
I0307 17:06:47.991472 28053 net.cpp:137] Memory required for data: 548930048
I0307 17:06:47.991474 28053 layer_factory.hpp:77] Creating layer ReLU19
I0307 17:06:47.991480 28053 net.cpp:84] Creating Layer ReLU19
I0307 17:06:47.991483 28053 net.cpp:406] ReLU19 <- Eltwise9
I0307 17:06:47.991488 28053 net.cpp:367] ReLU19 -> Eltwise9 (in-place)
I0307 17:06:47.992483 28053 net.cpp:122] Setting up ReLU19
I0307 17:06:47.992501 28053 net.cpp:129] Top shape: 128 64 8 8 (524288)
I0307 17:06:47.992503 28053 net.cpp:137] Memory required for data: 551027200
I0307 17:06:47.992507 28053 layer_factory.hpp:77] Creating layer Pooling1
I0307 17:06:47.992514 28053 net.cpp:84] Creating Layer Pooling1
I0307 17:06:47.992518 28053 net.cpp:406] Pooling1 <- Eltwise9
I0307 17:06:47.992525 28053 net.cpp:380] Pooling1 -> Pooling1
I0307 17:06:47.993196 28053 net.cpp:122] Setting up Pooling1
I0307 17:06:47.993209 28053 net.cpp:129] Top shape: 128 64 1 1 (8192)
I0307 17:06:47.993212 28053 net.cpp:137] Memory required for data: 551059968
I0307 17:06:47.993216 28053 layer_factory.hpp:77] Creating layer InnerProduct1
I0307 17:06:47.993223 28053 net.cpp:84] Creating Layer InnerProduct1
I0307 17:06:47.993227 28053 net.cpp:406] InnerProduct1 <- Pooling1
I0307 17:06:47.993235 28053 net.cpp:380] InnerProduct1 -> InnerProduct1
I0307 17:06:47.993386 28053 net.cpp:122] Setting up InnerProduct1
I0307 17:06:47.993394 28053 net.cpp:129] Top shape: 128 10 (1280)
I0307 17:06:47.993397 28053 net.cpp:137] Memory required for data: 551065088
I0307 17:06:47.993403 28053 layer_factory.hpp:77] Creating layer SoftmaxWithLoss1
I0307 17:06:47.993409 28053 net.cpp:84] Creating Layer SoftmaxWithLoss1
I0307 17:06:47.993413 28053 net.cpp:406] SoftmaxWithLoss1 <- InnerProduct1
I0307 17:06:47.993417 28053 net.cpp:406] SoftmaxWithLoss1 <- label
I0307 17:06:47.993425 28053 net.cpp:380] SoftmaxWithLoss1 -> SoftmaxWithLoss1
…
I0307 17:06:47.995424 28053 solver.cpp:190] Creating test net (#0) specified by net file: examples/cifar10/cifar10_resnet20_train_test.prototxt
I0307 17:06:47.995498 28053 net.cpp:294] The NetState phase (1) differed from the phase (0) specified by a rule in layer cifar
I0307 17:06:47.995991 28053 net.cpp:51] Initializing net from parameters: 
name: "cifar10_resnet20"
state {
  phase: TEST
}
layer {
  name: "cifar"
  type: "Data"
  top: "data"
  top: "label"
  include {
    phase: TEST
  }
  transform_param {
    mean_file: "examples/cifar10/mean.binaryproto"
  }
  data_param {
    source: "examples/cifar10/cifar10_train_lmdb"
    batch_size: 100
    backend: LMDB
  }
}
layer {
  name: "Convolution1"
  type: "Convolution"
  bottom: "data"
  top: "Convolution1"
  param {
    lr_mult: 1
    decay_mult: 1
  }
  param {
    lr_mult: 2
    decay_mult: 0
  }
  convolution_param {
    num_output: 16
    pad: 1
    kernel_size: 3
    stride: 1
    weight_filler {
      type: "msra"
    }
    bias_filler {
      type: "constant"
      value: 0
    }
  }
}
layer {
  name: "BatchNorm1"
  type: "BatchNorm"
  bottom: "Convolution1"
  top: "Convolution1"
  param {
    lr_mult: 0
    decay_mult: 0
  }
  param {
    lr_mult: 0
    decay_mult: 0
  }
  param {
    lr_mult: 0
    decay_mult: 0
  }
}
layer {
  name: "Scale1"
  type: "Scale"
  bottom: "Convolution1"
  top: "Convolution1"
  scale_param {
    bias_term: true
  }
}
layer {
  name: "ReLU1"
  type: "ReLU"
  bottom: "Convolution1"
  top: "Convolution1"
}
layer {
  name: "Convolution2"
  type: "Convolution"
  bottom: "Convolution1"
  top: "Convolution2"
  param {
    lr_mult: 1
    decay_mult: 1
  }
  param {
    lr_mult: 2
    decay_mult: 0
  }
  convolution_param {
    num_output: 16
    pad: 1
    kernel_size: 3
    stride: 1
    weight_filler {
      type: "msra"
    }
    bias_filler {
      type: "constant"
      value: 0
    }
  }
}
layer {
  name: "BatchNorm2"
  type: "BatchNorm"
  bottom: "Convolution2"
  top: "Convolution2"
  param {
    lr_mult: 0
    decay_mult: 0
  }
  param {
    lr_mult: 0
    decay_mult: 0
  }
  param {
    lr_mult: 0
    decay_mult: 0
  }
}
layer {
  name: "Scale2"
  type: "Scale"
  bottom: "Convolution2"
  top: "Convolution2"
  scale_param {
    bias_term: true
  }
}
layer {
  name: "ReLU2"
  type: "ReLU"
  bottom: "Convolution2"
  top: "Convolution2"
}
layer {
  name: "Convolution3"
  type: "Convolution"
  bottom: "Convolution2"
  top: "Convolution3"
  param {
    lr_mult: 1
    decay_mult: 1
  }
  param {
    lr_mult: 2
    decay_mult: 0
  }
  convolution_param {
    num_output: 16
    pad: 1
    kernel_size: 3
    stride: 1
    weight_filler {
      type: "msra"
    }
    bias_filler {
      type: "constant"
      value: 0
    }
  }
}
layer {
  name: "BatchNorm3"
  type: "BatchNorm"
  bottom: "Convolution3"
  top: "Convolution3"
  param {
    lr_mult: 0
    decay_mult: 0
  }
  param {
    lr_mult: 0
    decay_mult: 0
  }
  param {
    lr_mult: 0
    decay_mult: 0
  }
}
layer {
  name: "Scale3"
  type: "Scale"
  bottom: "Convolution3"
  top: "Convolution3"
  scale_param {
    bias_term: true
  }
}
layer {
  name: "Eltwise1"
  type: "Eltwise"
  bottom: "Convolution1"
  bottom: "Convolution3"
  top: "Eltwise1"
  eltwise_param {
    operation: SUM
  }
}
layer {
  name: "ReLU3"
  type: "ReLU"
  bottom: "Eltwise1"
  top: "Eltwise1"
}
layer {
  name: "Convolution4"
  type: "Convolution"
  bottom: "Eltwise1"
  top: "Convolution4"
  param {
    lr_mult: 1
    decay_mult: 1
  }
  param {
    lr_mult: 2
    decay_mult: 0
  }
  convolution_param {
    num_output: 16
    pad: 1
    kernel_size: 3
    stride: 1
    weight_filler {
      type: "msra"
    }
    bias_filler {
      type: "constant"
      value: 0
    }
  }
}
layer {
  name: "BatchNorm4"
  type: "BatchNorm"
  bottom: "Convolution4"
  top: "Convolution4"
  param {
    lr_mult: 0
    decay_mult: 0
  }
  param {
    lr_mult: 0
    decay_mult: 0
  }
  param {
    lr_mult: 0
    decay_mult: 0
  }
}
layer {
  name: "Scale4"
  type: "Scale"
  bottom: "Convolution4"
  top: "Convolution4"
  scale_param {
    bias_term: true
  }
}
layer {
  name: "ReLU4"
  type: "ReLU"
  bottom: "Convolution4"
  top: "Convolution4"
}
layer {
  name: "Convolution5"
  type: "Convolution"
  bottom: "Convolution4"
  top: "Convolution5"
  param {
    lr_mult: 1
    decay_mult: 1
  }
  param {
    lr_mult: 2
    decay_mult: 0
  }
  convolution_param {
    num_output: 16
    pad: 1
    kernel_size: 3
    stride: 1
    weight_filler {
      type: "msra"
    }
    bias_filler {
      type: "constant"
      value: 0
    }
  }
}
layer {
  name: "BatchNorm5"
  type: "BatchNorm"
  bottom: "Convolution5"
  top: "Convolution5"
  param {
    lr_mult: 0
    decay_mult: 0
  }
  param {
    lr_mult: 0
    decay_mult: 0
  }
  param {
    lr_mult: 0
    decay_mult: 0
  }
}
layer {
  name: "Scale5"
  type: "Scale"
  bottom: "Convolution5"
  top: "Convolution5"
  scale_param {
    bias_term: true
  }
}
layer {
  name: "Eltwise2"
  type: "Eltwise"
  bottom: "Eltwise1"
  bottom: "Convolution5"
  top: "Eltwise2"
  eltwise_param {
    operation: SUM
  }
}
layer {
  name: "ReLU5"
  type: "ReLU"
  bottom: "Eltwise2"
  top: "Eltwise2"
}
layer {
  name: "Convolution6"
  type: "Convolution"
  bottom: "Eltwise2"
  top: "Convolution6"
  param {
    lr_mult: 1
    decay_mult: 1
  }
  param {
    lr_mult: 2
    decay_mult: 0
  }
  convolution_param {
    num_output: 16
    pad: 1
    kernel_size: 3
    stride: 1
    weight_filler {
      type: "msra"
    }
    bias_filler {
      type: "constant"
      value: 0
    }
  }
}
layer {
  name: "BatchNorm6"
  type: "BatchNorm"
  bottom: "Convolution6"
  top: "Convolution6"
  param {
    lr_mult: 0
    decay_mult: 0
  }
  param {
    lr_mult: 0
    decay_mult: 0
  }
  param {
    lr_mult: 0
    decay_mult: 0
  }
}
layer {
  name: "Scale6"
  type: "Scale"
  bottom: "Convolution6"
  top: "Convolution6"
  scale_param {
    bias_term: true
  }
}
layer {
  name: "ReLU6"
  type: "ReLU"
  bottom: "Convolution6"
  top: "Convolution6"
}
layer {
  name: "Convolution7"
  type: "Convolution"
  bottom: "Convolution6"
  top: "Convolution7"
  param {
    lr_mult: 1
    decay_mult: 1
  }
  param {
    lr_mult: 2
    decay_mult: 0
  }
  convolution_param {
    num_output: 16
    pad: 1
    kernel_size: 3
    stride: 1
    weight_filler {
      type: "msra"
    }
    bias_filler {
      type: "constant"
      value: 0
    }
  }
}
layer {
  name: "BatchNorm7"
  type: "BatchNorm"
  bottom: "Convolution7"
  top: "Convolution7"
  param {
    lr_mult: 0
    decay_mult: 0
  }
  param {
    lr_mult: 0
    decay_mult: 0
  }
  param {
    lr_mult: 0
    decay_mult: 0
  }
}
layer {
  name: "Scale7"
  type: "Scale"
  bottom: "Convolution7"
  top: "Convolution7"
  scale_param {
    bias_term: true
  }
}
layer {
  name: "Eltwise3"
  type: "Eltwise"
  bottom: "Eltwise2"
  bottom: "Convolution7"
  top: "Eltwise3"
  eltwise_param {
    operation: SUM
  }
}
layer {
  name: "ReLU7"
  type: "ReLU"
  bottom: "Eltwise3"
  top: "Eltwise3"
}
layer {
  name: "Convolution8"
  type: "Convolution"
  bottom: "Eltwise3"
  top: "Convolution8"
  param {
    lr_mult: 1
    decay_mult: 1
  }
  param {
    lr_mult: 2
    decay_mult: 0
  }
  convolution_param {
    num_output: 32
    pad: 0
    kernel_size: 1
    stride: 2
    weight_filler {
      type: "msra"
    }
    bias_filler {
      type: "constant"
      value: 0
    }
  }
}
layer {
  name: "BatchNorm8"
  type: "BatchNorm"
  bottom: "Convolution8"
  top: "Convolution8"
  param {
    lr_mult: 0
    decay_mult: 0
  }
  param {
    lr_mult: 0
    decay_mult: 0
  }
  param {
    lr_mult: 0
    decay_mult: 0
  }
}
layer {
  name: "Scale8"
  type: "Scale"
  bottom: "Convolution8"
  top: "Convolution8"
  scale_param {
    bias_term: true
  }
}
layer {
  name: "Convolution9"
  type: "Convolution"
  bottom: "Eltwise3"
  top: "Convolution9"
  param {
    lr_mult: 1
    decay_mult: 1
  }
  param {
    lr_mult: 2
    decay_mult: 0
  }
  convolution_param {
    num_output: 32
    pad: 1
    kernel_size: 3
    stride: 2
    weight_filler {
      type: "msra"
    }
    bias_filler {
      type: "constant"
      value: 0
    }
  }
}
layer {
  name: "BatchNorm9"
  type: "BatchNorm"
  bottom: "Convolution9"
  top: "Convolution9"
  param {
    lr_mult: 0
    decay_mult: 0
  }
  param {
    lr_mult: 0
    decay_mult: 0
  }
  param {
    lr_mult: 0
    decay_mult: 0
  }
}
layer {
  name: "Scale9"
  type: "Scale"
  bottom: "Convolution9"
  top: "Convolution9"
  scale_param {
    bias_term: true
  }
}
layer {
  name: "ReLU8"
  type: "ReLU"
  bottom: "Convolution9"
  top: "Convolution9"
}
layer {
  name: "Convolution10"
  type: "Convolution"
  bottom: "Convolution9"
  top: "Convolution10"
  param {
    lr_mult: 1
    decay_mult: 1
  }
  param {
    lr_mult: 2
    decay_mult: 0
  }
  convolution_param {
    num_output: 32
    pad: 1
    kernel_size: 3
    stride: 1
    weight_filler {
      type: "msra"
    }
    bias_filler {
      type: "constant"
      value: 0
    }
  }
}
layer {
  name: "BatchNorm10"
  type: "BatchNorm"
  bottom: "Convolution10"
  top: "Convolution10"
  param {
    lr_mult: 0
    decay_mult: 0
  }
  param {
    lr_mult: 0
    decay_mult: 0
  }
  param {
    lr_mult: 0
    decay_mult: 0
  }
}
layer {
  name: "Scale10"
  type: "Scale"
  bottom: "Convolution10"
  top: "Convolution10"
  scale_param {
    bias_term: true
  }
}
layer {
  name: "Eltwise4"
  type: "Eltwise"
  bottom: "Convolution8"
  bottom: "Convolution10"
  top: "Eltwise4"
  eltwise_param {
    operation: SUM
  }
}
layer {
  name: "ReLU9"
  type: "ReLU"
  bottom: "Eltwise4"
  top: "Eltwise4"
}
layer {
  name: "Convolution11"
  type: "Convolution"
  bottom: "Eltwise4"
  top: "Convolution11"
  param {
    lr_mult: 1
    decay_mult: 1
  }
  param {
    lr_mult: 2
    decay_mult: 0
  }
  convolution_param {
    num_output: 32
    pad: 1
    kernel_size: 3
    stride: 1
    weight_filler {
      type: "msra"
    }
    bias_filler {
      type: "constant"
      value: 0
    }
  }
}
layer {
  name: "BatchNorm11"
  type: "BatchNorm"
  bottom: "Convolution11"
  top: "Convolution11"
  param {
    lr_mult: 0
    decay_mult: 0
  }
  param {
    lr_mult: 0
    decay_mult: 0
  }
  param {
    lr_mult: 0
    decay_mult: 0
  }
}
layer {
  name: "Scale11"
  type: "Scale"
  bottom: "Convolution11"
  top: "Convolution11"
  scale_param {
    bias_term: true
  }
}
layer {
  name: "ReLU10"
  type: "ReLU"
  bottom: "Convolution11"
  top: "Convolution11"
}
layer {
  name: "Convolution12"
  type: "Convolution"
  bottom: "Convolution11"
  top: "Convolution12"
  param {
    lr_mult: 1
    decay_mult: 1
  }
  param {
    lr_mult: 2
    decay_mult: 0
  }
  convolution_param {
    num_output: 32
    pad: 1
    kernel_size: 3
    stride: 1
    weight_filler {
      type: "msra"
    }
    bias_filler {
      type: "constant"
      value: 0
    }
  }
}
layer {
  name: "BatchNorm12"
  type: "BatchNorm"
  bottom: "Convolution12"
  top: "Convolution12"
  param {
    lr_mult: 0
    decay_mult: 0
  }
  param {
    lr_mult: 0
    decay_mult: 0
  }
  param {
    lr_mult: 0
    decay_mult: 0
  }
}
layer {
  name: "Scale12"
  type: "Scale"
  bottom: "Convolution12"
  top: "Convolution12"
  scale_param {
    bias_term: true
  }
}
layer {
  name: "Eltwise5"
  type: "Eltwise"
  bottom: "Eltwise4"
  bottom: "Convolution12"
  top: "Eltwise5"
  eltwise_param {
    operation: SUM
  }
}
layer {
  name: "ReLU11"
  type: "ReLU"
  bottom: "Eltwise5"
  top: "Eltwise5"
}
layer {
  name: "Convolution13"
  type: "Convolution"
  bottom: "Eltwise5"
  top: "Convolution13"
  param {
    lr_mult: 1
    decay_mult: 1
  }
  param {
    lr_mult: 2
    decay_mult: 0
  }
  convolution_param {
    num_output: 32
    pad: 1
    kernel_size: 3
    stride: 1
    weight_filler {
      type: "msra"
    }
    bias_filler {
      type: "constant"
      value: 0
    }
  }
}
layer {
  name: "BatchNorm13"
  type: "BatchNorm"
  bottom: "Convolution13"
  top: "Convolution13"
  param {
    lr_mult: 0
    decay_mult: 0
  }
  param {
    lr_mult: 0
    decay_mult: 0
  }
  param {
    lr_mult: 0
    decay_mult: 0
  }
}
layer {
  name: "Scale13"
  type: "Scale"
  bottom: "Convolution13"
  top: "Convolution13"
  scale_param {
    bias_term: true
  }
}
layer {
  name: "ReLU12"
  type: "ReLU"
  bottom: "Convolution13"
  top: "Convolution13"
}
layer {
  name: "Convolution14"
  type: "Convolution"
  bottom: "Convolution13"
  top: "Convolution14"
  param {
    lr_mult: 1
    decay_mult: 1
  }
  param {
    lr_mult: 2
    decay_mult: 0
  }
  convolution_param {
    num_output: 32
    pad: 1
    kernel_size: 3
    stride: 1
    weight_filler {
      type: "msra"
    }
    bias_filler {
      type: "constant"
      value: 0
    }
  }
}
layer {
  name: "BatchNorm14"
  type: "BatchNorm"
  bottom: "Convolution14"
  top: "Convolution14"
  param {
    lr_mult: 0
    decay_mult: 0
  }
  param {
    lr_mult: 0
    decay_mult: 0
  }
  param {
    lr_mult: 0
    decay_mult: 0
  }
}
layer {
  name: "Scale14"
  type: "Scale"
  bottom: "Convolution14"
  top: "Convolution14"
  scale_param {
    bias_term: true
  }
}
layer {
  name: "Eltwise6"
  type: "Eltwise"
  bottom: "Eltwise5"
  bottom: "Convolution14"
  top: "Eltwise6"
  eltwise_param {
    operation: SUM
  }
}
layer {
  name: "ReLU13"
  type: "ReLU"
  bottom: "Eltwise6"
  top: "Eltwise6"
}
layer {
  name: "Convolution15"
  type: "Convolution"
  bottom: "Eltwise6"
  top: "Convolution15"
  param {
    lr_mult: 1
    decay_mult: 1
  }
  param {
    lr_mult: 2
    decay_mult: 0
  }
  convolution_param {
    num_output: 64
    pad: 0
    kernel_size: 1
    stride: 2
    weight_filler {
      type: "msra"
    }
    bias_filler {
      type: "constant"
      value: 0
    }
  }
}
layer {
  name: "BatchNorm15"
  type: "BatchNorm"
  bottom: "Convolution15"
  top: "Convolution15"
  param {
    lr_mult: 0
    decay_mult: 0
  }
  param {
    lr_mult: 0
    decay_mult: 0
  }
  param {
    lr_mult: 0
    decay_mult: 0
  }
}
layer {
  name: "Scale15"
  type: "Scale"
  bottom: "Convolution15"
  top: "Convolution15"
  scale_param {
    bias_term: true
  }
}
layer {
  name: "Convolution16"
  type: "Convolution"
  bottom: "Eltwise6"
  top: "Convolution16"
  param {
    lr_mult: 1
    decay_mult: 1
  }
  param {
    lr_mult: 2
    decay_mult: 0
  }
  convolution_param {
    num_output: 64
    pad: 1
    kernel_size: 3
    stride: 2
    weight_filler {
      type: "msra"
    }
    bias_filler {
      type: "constant"
      value: 0
    }
  }
}
layer {
  name: "BatchNorm16"
  type: "BatchNorm"
  bottom: "Convolution16"
  top: "Convolution16"
  param {
    lr_mult: 0
    decay_mult: 0
  }
  param {
    lr_mult: 0
    decay_mult: 0
  }
  param {
    lr_mult: 0
    decay_mult: 0
  }
}
layer {
  name: "Scale16"
  type: "Scale"
  bottom: "Convolution16"
  top: "Convolution16"
  scale_param {
    bias_term: true
  }
}
layer {
  name: "ReLU14"
  type: "ReLU"
  bottom: "Convolution16"
  top: "Convolution16"
}
layer {
  name: "Convolution17"
  type: "Convolution"
  bottom: "Convolution16"
  top: "Convolution17"
  param {
    lr_mult: 1
    decay_mult: 1
  }
  param {
    lr_mult: 2
    decay_mult: 0
  }
  convolution_param {
    num_output: 64
    pad: 1
    kernel_size: 3
    stride: 1
    weight_filler {
      type: "msra"
    }
    bias_filler {
      type: "constant"
      value: 0
    }
  }
}
layer {
  name: "BatchNorm17"
  type: "BatchNorm"
  bottom: "Convolution17"
  top: "Convolution17"
  param {
    lr_mult: 0
    decay_mult: 0
  }
  param {
    lr_mult: 0
    decay_mult: 0
  }
  param {
    lr_mult: 0
    decay_mult: 0
  }
}
layer {
  name: "Scale17"
  type: "Scale"
  bottom: "Convolution17"
  top: "Convolution17"
  scale_param {
    bias_term: true
  }
}
layer {
  name: "Eltwise7"
  type: "Eltwise"
  bottom: "Convolution15"
  bottom: "Convolution17"
  top: "Eltwise7"
  eltwise_param {
    operation: SUM
  }
}
layer {
  name: "ReLU15"
  type: "ReLU"
  bottom: "Eltwise7"
  top: "Eltwise7"
}
layer {
  name: "Convolution18"
  type: "Convolution"
  bottom: "Eltwise7"
  top: "Convolution18"
  param {
    lr_mult: 1
    decay_mult: 1
  }
  param {
    lr_mult: 2
    decay_mult: 0
  }
  convolution_param {
    num_output: 64
    pad: 1
    kernel_size: 3
    stride: 1
    weight_filler {
      type: "msra"
    }
    bias_filler {
      type: "constant"
      value: 0
    }
  }
}
layer {
  name: "BatchNorm18"
  type: "BatchNorm"
  bottom: "Convolution18"
  top: "Convolution18"
  param {
    lr_mult: 0
    decay_mult: 0
  }
  param {
    lr_mult: 0
    decay_mult: 0
  }
  param {
    lr_mult: 0
    decay_mult: 0
  }
}
layer {
  name: "Scale18"
  type: "Scale"
  bottom: "Convolution18"
  top: "Convolution18"
  scale_param {
    bias_term: true
  }
}
layer {
  name: "ReLU16"
  type: "ReLU"
  bottom: "Convolution18"
  top: "Convolution18"
}
layer {
  name: "Convolution19"
  type: "Convolution"
  bottom: "Convolution18"
  top: "Convolution19"
  param {
    lr_mult: 1
    decay_mult: 1
  }
  param {
    lr_mult: 2
    decay_mult: 0
  }
  convolution_param {
    num_output: 64
    pad: 1
    kernel_size: 3
    stride: 1
    weight_filler {
      type: "msra"
    }
    bias_filler {
      type: "constant"
      value: 0
    }
  }
}
layer {
  name: "BatchNorm19"
  type: "BatchNorm"
  bottom: "Convolution19"
  top: "Convolution19"
  param {
    lr_mult: 0
    decay_mult: 0
  }
  param {
    lr_mult: 0
    decay_mult: 0
  }
  param {
    lr_mult: 0
    decay_mult: 0
  }
}
layer {
  name: "Scale19"
  type: "Scale"
  bottom: "Convolution19"
  top: "Convolution19"
  scale_param {
    bias_term: true
  }
}
layer {
  name: "Eltwise8"
  type: "Eltwise"
  bottom: "Eltwise7"
  bottom: "Convolution19"
  top: "Eltwise8"
  eltwise_param {
    operation: SUM
  }
}
layer {
  name: "ReLU17"
  type: "ReLU"
  bottom: "Eltwise8"
  top: "Eltwise8"
}
layer {
  name: "Convolution20"
  type: "Convolution"
  bottom: "Eltwise8"
  top: "Convolution20"
  param {
    lr_mult: 1
    decay_mult: 1
  }
  param {
    lr_mult: 2
    decay_mult: 0
  }
  convolution_param {
    num_output: 64
    pad: 1
    kernel_size: 3
    stride: 1
    weight_filler {
      type: "msra"
    }
    bias_filler {
      type: "constant"
      value: 0
    }
  }
}
layer {
  name: "BatchNorm20"
  type: "BatchNorm"
  bottom: "Convolution20"
  top: "Convolution20"
  param {
    lr_mult: 0
    decay_mult: 0
  }
  param {
    lr_mult: 0
    decay_mult: 0
  }
  param {
    lr_mult: 0
    decay_mult: 0
  }
}
layer {
  name: "Scale20"
  type: "Scale"
  bottom: "Convolution20"
  top: "Convolution20"
  scale_param {
    bias_term: true
  }
}
layer {
  name: "ReLU18"
  type: "ReLU"
  bottom: "Convolution20"
  top: "Convolution20"
}
layer {
  name: "Convolution21"
  type: "Convolution"
  bottom: "Convolution20"
  top: "Convolution21"
  param {
    lr_mult: 1
    decay_mult: 1
  }
  param {
    lr_mult: 2
    decay_mult: 0
  }
  convolution_param {
    num_output: 64
    pad: 1
    kernel_size: 3
    stride: 1
    weight_filler {
      type: "msra"
    }
    bias_filler {
      type: "constant"
      value: 0
    }
  }
}
layer {
  name: "BatchNorm21"
  type: "BatchNorm"
  bottom: "Convolution21"
  top: "Convolution21"
  param {
    lr_mult: 0
    decay_mult: 0
  }
  param {
    lr_mult: 0
    decay_mult: 0
  }
  param {
    lr_mult: 0
    decay_mult: 0
  }
}
layer {
  name: "Scale21"
  type: "Scale"
  bottom: "Convolution21"
  top: "Convolution21"
  scale_param {
    bias_term: true
  }
}
layer {
  name: "Eltwise9"
  type: "Eltwise"
  bottom: "Eltwise8"
  bottom: "Convolution21"
  top: "Eltwise9"
  eltwise_param {
    operation: SUM
  }
}
layer {
  name: "ReLU19"
  type: "ReLU"
  bottom: "Eltwise9"
  top: "Eltwise9"
}
layer {
  name: "Pooling1"
  type: "Pooling"
  bottom: "Eltwise9"
  top: "Pooling1"
  pooling_param {
    pool: AVE
    global_pooling: true
  }
}
layer {
  name: "InnerProduct1"
  type: "InnerProduct"
  bottom: "Pooling1"
  top: "InnerProduct1"
  param {
    lr_mult: 1
    decay_mult: 1
  }
  param {
    lr_mult: 2
    decay_mult: 1
  }
  inner_product_param {
    num_output: 10
    weight_filler {
      type: "msra"
    }
    bias_filler {
      type: "constant"
      value: 0
    }
  }
}
layer {
  name: "SoftmaxWithLoss1"
  type: "SoftmaxWithLoss"
  bottom: "InnerProduct1"
  bottom: "label"
  top: "SoftmaxWithLoss1"
}
layer {
  name: "Accuracy1"
  type: "Accuracy"
  bottom: "InnerProduct1"
  bottom: "label"
  top: "Accuracy1"
  include {
    phase: TEST
  }
}
I0307 17:06:47.996302 28053 layer_factory.hpp:77] Creating layer cifar
I0307 17:06:47.996362 28053 db_lmdb.cpp:35] Opened lmdb examples/cifar10/cifar10_train_lmdb
I0307 17:06:47.996381 28053 net.cpp:84] Creating Layer cifar
I0307 17:06:47.996389 28053 net.cpp:380] cifar -> data
I0307 17:06:47.996398 28053 net.cpp:380] cifar -> label
I0307 17:06:47.996405 28053 data_transformer.cpp:25] Loading mean file from: examples/cifar10/mean.binaryproto
I0307 17:06:47.996587 28053 data_layer.cpp:45] output data size: 100,3,32,32
I0307 17:06:48.003432 28053 net.cpp:122] Setting up cifar
I0307 17:06:48.003458 28053 net.cpp:129] Top shape: 100 3 32 32 (307200)
I0307 17:06:48.003463 28053 net.cpp:129] Top shape: 100 (100)
I0307 17:06:48.003465 28053 net.cpp:137] Memory required for data: 1229200
I0307 17:06:48.003471 28053 layer_factory.hpp:77] Creating layer label_cifar_1_split
I0307 17:06:48.003484 28053 net.cpp:84] Creating Layer label_cifar_1_split
I0307 17:06:48.003487 28053 net.cpp:406] label_cifar_1_split <- label
I0307 17:06:48.003496 28053 net.cpp:380] label_cifar_1_split -> label_cifar_1_split_0
I0307 17:06:48.003506 28053 net.cpp:380] label_cifar_1_split -> label_cifar_1_split_1
I0307 17:06:48.003571 28053 net.cpp:122] Setting up label_cifar_1_split
I0307 17:06:48.003581 28053 net.cpp:129] Top shape: 100 (100)
I0307 17:06:48.003583 28053 net.cpp:129] Top shape: 100 (100)
I0307 17:06:48.003587 28053 net.cpp:137] Memory required for data: 1230000
I0307 17:06:48.003590 28053 layer_factory.hpp:77] Creating layer Convolution1
I0307 17:06:48.003603 28053 net.cpp:84] Creating Layer Convolution1
I0307 17:06:48.003607 28053 net.cpp:406] Convolution1 <- data
I0307 17:06:48.003615 28053 net.cpp:380] Convolution1 -> Convolution1
I0307 17:06:48.007203 28053 net.cpp:122] Setting up Convolution1
I0307 17:06:48.007223 28053 net.cpp:129] Top shape: 100 16 32 32 (1638400)
I0307 17:06:48.007227 28053 net.cpp:137] Memory required for data: 7783600
I0307 17:06:48.007239 28053 layer_factory.hpp:77] Creating layer BatchNorm1
I0307 17:06:48.007247 28053 net.cpp:84] Creating Layer BatchNorm1
I0307 17:06:48.007251 28053 net.cpp:406] BatchNorm1 <- Convolution1
I0307 17:06:48.007259 28053 net.cpp:367] BatchNorm1 -> Convolution1 (in-place)
I0307 17:06:48.007508 28053 net.cpp:122] Setting up BatchNorm1
I0307 17:06:48.007516 28053 net.cpp:129] Top shape: 100 16 32 32 (1638400)
I0307 17:06:48.007519 28053 net.cpp:137] Memory required for data: 14337200
I0307 17:06:48.007529 28053 layer_factory.hpp:77] Creating layer Scale1
I0307 17:06:48.007539 28053 net.cpp:84] Creating Layer Scale1
I0307 17:06:48.007542 28053 net.cpp:406] Scale1 <- Convolution1
I0307 17:06:48.007550 28053 net.cpp:367] Scale1 -> Convolution1 (in-place)
I0307 17:06:48.007601 28053 layer_factory.hpp:77] Creating layer Scale1
I0307 17:06:48.007742 28053 net.cpp:122] Setting up Scale1
I0307 17:06:48.007752 28053 net.cpp:129] Top shape: 100 16 32 32 (1638400)
I0307 17:06:48.007755 28053 net.cpp:137] Memory required for data: 20890800
I0307 17:06:48.007761 28053 layer_factory.hpp:77] Creating layer ReLU1
I0307 17:06:48.007767 28053 net.cpp:84] Creating Layer ReLU1
I0307 17:06:48.007772 28053 net.cpp:406] ReLU1 <- Convolution1
I0307 17:06:48.007778 28053 net.cpp:367] ReLU1 -> Convolution1 (in-place)
I0307 17:06:48.008392 28053 net.cpp:122] Setting up ReLU1
I0307 17:06:48.008405 28053 net.cpp:129] Top shape: 100 16 32 32 (1638400)
I0307 17:06:48.008409 28053 net.cpp:137] Memory required for data: 27444400
I0307 17:06:48.008412 28053 layer_factory.hpp:77] Creating layer Convolution1_ReLU1_0_split
I0307 17:06:48.008419 28053 net.cpp:84] Creating Layer Convolution1_ReLU1_0_split
I0307 17:06:48.008422 28053 net.cpp:406] Convolution1_ReLU1_0_split <- Convolution1
I0307 17:06:48.008445 28053 net.cpp:380] Convolution1_ReLU1_0_split -> Convolution1_ReLU1_0_split_0
I0307 17:06:48.008453 28053 net.cpp:380] Convolution1_ReLU1_0_split -> Convolution1_ReLU1_0_split_1
I0307 17:06:48.008509 28053 net.cpp:122] Setting up Convolution1_ReLU1_0_split
I0307 17:06:48.008517 28053 net.cpp:129] Top shape: 100 16 32 32 (1638400)
I0307 17:06:48.008522 28053 net.cpp:129] Top shape: 100 16 32 32 (1638400)
I0307 17:06:48.008524 28053 net.cpp:137] Memory required for data: 40551600
I0307 17:06:48.008528 28053 layer_factory.hpp:77] Creating layer Convolution2
I0307 17:06:48.008540 28053 net.cpp:84] Creating Layer Convolution2
I0307 17:06:48.008555 28053 net.cpp:406] Convolution2 <- Convolution1_ReLU1_0_split_0
I0307 17:06:48.008563 28053 net.cpp:380] Convolution2 -> Convolution2
I0307 17:06:48.011534 28053 net.cpp:122] Setting up Convolution2
I0307 17:06:48.011554 28053 net.cpp:129] Top shape: 100 16 32 32 (1638400)
I0307 17:06:48.011559 28053 net.cpp:137] Memory required for data: 47105200
I0307 17:06:48.011569 28053 layer_factory.hpp:77] Creating layer BatchNorm2
I0307 17:06:48.011580 28053 net.cpp:84] Creating Layer BatchNorm2
I0307 17:06:48.011584 28053 net.cpp:406] BatchNorm2 <- Convolution2
I0307 17:06:48.011593 28053 net.cpp:367] BatchNorm2 -> Convolution2 (in-place)
I0307 17:06:48.011849 28053 net.cpp:122] Setting up BatchNorm2
I0307 17:06:48.011858 28053 net.cpp:129] Top shape: 100 16 32 32 (1638400)
I0307 17:06:48.011862 28053 net.cpp:137] Memory required for data: 53658800
I0307 17:06:48.011869 28053 layer_factory.hpp:77] Creating layer Scale2
I0307 17:06:48.011878 28053 net.cpp:84] Creating Layer Scale2
I0307 17:06:48.011881 28053 net.cpp:406] Scale2 <- Convolution2
I0307 17:06:48.011886 28053 net.cpp:367] Scale2 -> Convolution2 (in-place)
I0307 17:06:48.011936 28053 layer_factory.hpp:77] Creating layer Scale2
I0307 17:06:48.012078 28053 net.cpp:122] Setting up Scale2
I0307 17:06:48.012086 28053 net.cpp:129] Top shape: 100 16 32 32 (1638400)
I0307 17:06:48.012089 28053 net.cpp:137] Memory required for data: 60212400
I0307 17:06:48.012095 28053 layer_factory.hpp:77] Creating layer ReLU2
I0307 17:06:48.012100 28053 net.cpp:84] Creating Layer ReLU2
I0307 17:06:48.012105 28053 net.cpp:406] ReLU2 <- Convolution2
I0307 17:06:48.012111 28053 net.cpp:367] ReLU2 -> Convolution2 (in-place)
I0307 17:06:48.013221 28053 net.cpp:122] Setting up ReLU2
I0307 17:06:48.013236 28053 net.cpp:129] Top shape: 100 16 32 32 (1638400)
I0307 17:06:48.013240 28053 net.cpp:137] Memory required for data: 66766000
I0307 17:06:48.013244 28053 layer_factory.hpp:77] Creating layer Convolution3
I0307 17:06:48.013257 28053 net.cpp:84] Creating Layer Convolution3
I0307 17:06:48.013262 28053 net.cpp:406] Convolution3 <- Convolution2
I0307 17:06:48.013269 28053 net.cpp:380] Convolution3 -> Convolution3
I0307 17:06:48.016541 28053 net.cpp:122] Setting up Convolution3
I0307 17:06:48.016561 28053 net.cpp:129] Top shape: 100 16 32 32 (1638400)
I0307 17:06:48.016566 28053 net.cpp:137] Memory required for data: 73319600
I0307 17:06:48.016573 28053 layer_factory.hpp:77] Creating layer BatchNorm3
I0307 17:06:48.016582 28053 net.cpp:84] Creating Layer BatchNorm3
I0307 17:06:48.016585 28053 net.cpp:406] BatchNorm3 <- Convolution3
I0307 17:06:48.016593 28053 net.cpp:367] BatchNorm3 -> Convolution3 (in-place)
I0307 17:06:48.016868 28053 net.cpp:122] Setting up BatchNorm3
I0307 17:06:48.016878 28053 net.cpp:129] Top shape: 100 16 32 32 (1638400)
I0307 17:06:48.016881 28053 net.cpp:137] Memory required for data: 79873200
I0307 17:06:48.016893 28053 layer_factory.hpp:77] Creating layer Scale3
I0307 17:06:48.016902 28053 net.cpp:84] Creating Layer Scale3
I0307 17:06:48.016906 28053 net.cpp:406] Scale3 <- Convolution3
I0307 17:06:48.016911 28053 net.cpp:367] Scale3 -> Convolution3 (in-place)
I0307 17:06:48.016963 28053 layer_factory.hpp:77] Creating layer Scale3
I0307 17:06:48.017104 28053 net.cpp:122] Setting up Scale3
I0307 17:06:48.017113 28053 net.cpp:129] Top shape: 100 16 32 32 (1638400)
I0307 17:06:48.017133 28053 net.cpp:137] Memory required for data: 86426800
I0307 17:06:48.017139 28053 layer_factory.hpp:77] Creating layer Eltwise1
I0307 17:06:48.017148 28053 net.cpp:84] Creating Layer Eltwise1
I0307 17:06:48.017153 28053 net.cpp:406] Eltwise1 <- Convolution1_ReLU1_0_split_1
I0307 17:06:48.017156 28053 net.cpp:406] Eltwise1 <- Convolution3
I0307 17:06:48.017163 28053 net.cpp:380] Eltwise1 -> Eltwise1
I0307 17:06:48.017204 28053 net.cpp:122] Setting up Eltwise1
I0307 17:06:48.017217 28053 net.cpp:129] Top shape: 100 16 32 32 (1638400)
I0307 17:06:48.017223 28053 net.cpp:137] Memory required for data: 92980400
I0307 17:06:48.017228 28053 layer_factory.hpp:77] Creating layer ReLU3
I0307 17:06:48.017237 28053 net.cpp:84] Creating Layer ReLU3
I0307 17:06:48.017242 28053 net.cpp:406] ReLU3 <- Eltwise1
I0307 17:06:48.017251 28053 net.cpp:367] ReLU3 -> Eltwise1 (in-place)
I0307 17:06:48.018322 28053 net.cpp:122] Setting up ReLU3
I0307 17:06:48.018338 28053 net.cpp:129] Top shape: 100 16 32 32 (1638400)
I0307 17:06:48.018342 28053 net.cpp:137] Memory required for data: 99534000
I0307 17:06:48.018345 28053 layer_factory.hpp:77] Creating layer Eltwise1_ReLU3_0_split
I0307 17:06:48.018357 28053 net.cpp:84] Creating Layer Eltwise1_ReLU3_0_split
I0307 17:06:48.018362 28053 net.cpp:406] Eltwise1_ReLU3_0_split <- Eltwise1
I0307 17:06:48.018368 28053 net.cpp:380] Eltwise1_ReLU3_0_split -> Eltwise1_ReLU3_0_split_0
I0307 17:06:48.018376 28053 net.cpp:380] Eltwise1_ReLU3_0_split -> Eltwise1_ReLU3_0_split_1
I0307 17:06:48.018446 28053 net.cpp:122] Setting up Eltwise1_ReLU3_0_split
I0307 17:06:48.018457 28053 net.cpp:129] Top shape: 100 16 32 32 (1638400)
I0307 17:06:48.018461 28053 net.cpp:129] Top shape: 100 16 32 32 (1638400)
I0307 17:06:48.018465 28053 net.cpp:137] Memory required for data: 112641200
I0307 17:06:48.018467 28053 layer_factory.hpp:77] Creating layer Convolution4
I0307 17:06:48.018481 28053 net.cpp:84] Creating Layer Convolution4
I0307 17:06:48.018486 28053 net.cpp:406] Convolution4 <- Eltwise1_ReLU3_0_split_0
I0307 17:06:48.018496 28053 net.cpp:380] Convolution4 -> Convolution4
I0307 17:06:48.021353 28053 net.cpp:122] Setting up Convolution4
I0307 17:06:48.021370 28053 net.cpp:129] Top shape: 100 16 32 32 (1638400)
I0307 17:06:48.021374 28053 net.cpp:137] Memory required for data: 119194800
I0307 17:06:48.021381 28053 layer_factory.hpp:77] Creating layer BatchNorm4
I0307 17:06:48.021391 28053 net.cpp:84] Creating Layer BatchNorm4
I0307 17:06:48.021397 28053 net.cpp:406] BatchNorm4 <- Convolution4
I0307 17:06:48.021404 28053 net.cpp:367] BatchNorm4 -> Convolution4 (in-place)
I0307 17:06:48.021651 28053 net.cpp:122] Setting up BatchNorm4
I0307 17:06:48.021659 28053 net.cpp:129] Top shape: 100 16 32 32 (1638400)
I0307 17:06:48.021663 28053 net.cpp:137] Memory required for data: 125748400
I0307 17:06:48.021670 28053 layer_factory.hpp:77] Creating layer Scale4
I0307 17:06:48.021677 28053 net.cpp:84] Creating Layer Scale4
I0307 17:06:48.021680 28053 net.cpp:406] Scale4 <- Convolution4
I0307 17:06:48.021687 28053 net.cpp:367] Scale4 -> Convolution4 (in-place)
I0307 17:06:48.021735 28053 layer_factory.hpp:77] Creating layer Scale4
I0307 17:06:48.021874 28053 net.cpp:122] Setting up Scale4
I0307 17:06:48.021883 28053 net.cpp:129] Top shape: 100 16 32 32 (1638400)
I0307 17:06:48.021888 28053 net.cpp:137] Memory required for data: 132302000
I0307 17:06:48.021893 28053 layer_factory.hpp:77] Creating layer ReLU4
I0307 17:06:48.021898 28053 net.cpp:84] Creating Layer ReLU4
I0307 17:06:48.021901 28053 net.cpp:406] ReLU4 <- Convolution4
I0307 17:06:48.021909 28053 net.cpp:367] ReLU4 -> Convolution4 (in-place)
I0307 17:06:48.022502 28053 net.cpp:122] Setting up ReLU4
I0307 17:06:48.022514 28053 net.cpp:129] Top shape: 100 16 32 32 (1638400)
I0307 17:06:48.022517 28053 net.cpp:137] Memory required for data: 138855600
I0307 17:06:48.022521 28053 layer_factory.hpp:77] Creating layer Convolution5
I0307 17:06:48.022532 28053 net.cpp:84] Creating Layer Convolution5
I0307 17:06:48.022537 28053 net.cpp:406] Convolution5 <- Convolution4
I0307 17:06:48.022559 28053 net.cpp:380] Convolution5 -> Convolution5
I0307 17:06:48.025591 28053 net.cpp:122] Setting up Convolution5
I0307 17:06:48.025609 28053 net.cpp:129] Top shape: 100 16 32 32 (1638400)
I0307 17:06:48.025611 28053 net.cpp:137] Memory required for data: 145409200
I0307 17:06:48.025619 28053 layer_factory.hpp:77] Creating layer BatchNorm5
I0307 17:06:48.025625 28053 net.cpp:84] Creating Layer BatchNorm5
I0307 17:06:48.025629 28053 net.cpp:406] BatchNorm5 <- Convolution5
I0307 17:06:48.025636 28053 net.cpp:367] BatchNorm5 -> Convolution5 (in-place)
I0307 17:06:48.025880 28053 net.cpp:122] Setting up BatchNorm5
I0307 17:06:48.025889 28053 net.cpp:129] Top shape: 100 16 32 32 (1638400)
I0307 17:06:48.025892 28053 net.cpp:137] Memory required for data: 151962800
I0307 17:06:48.025905 28053 layer_factory.hpp:77] Creating layer Scale5
I0307 17:06:48.025913 28053 net.cpp:84] Creating Layer Scale5
I0307 17:06:48.025916 28053 net.cpp:406] Scale5 <- Convolution5
I0307 17:06:48.025921 28053 net.cpp:367] Scale5 -> Convolution5 (in-place)
I0307 17:06:48.025972 28053 layer_factory.hpp:77] Creating layer Scale5
I0307 17:06:48.026114 28053 net.cpp:122] Setting up Scale5
I0307 17:06:48.026124 28053 net.cpp:129] Top shape: 100 16 32 32 (1638400)
I0307 17:06:48.026126 28053 net.cpp:137] Memory required for data: 158516400
I0307 17:06:48.026131 28053 layer_factory.hpp:77] Creating layer Eltwise2
I0307 17:06:48.026140 28053 net.cpp:84] Creating Layer Eltwise2
I0307 17:06:48.026144 28053 net.cpp:406] Eltwise2 <- Eltwise1_ReLU3_0_split_1
I0307 17:06:48.026149 28053 net.cpp:406] Eltwise2 <- Convolution5
I0307 17:06:48.026154 28053 net.cpp:380] Eltwise2 -> Eltwise2
I0307 17:06:48.026185 28053 net.cpp:122] Setting up Eltwise2
I0307 17:06:48.026192 28053 net.cpp:129] Top shape: 100 16 32 32 (1638400)
I0307 17:06:48.026196 28053 net.cpp:137] Memory required for data: 165070000
I0307 17:06:48.026198 28053 layer_factory.hpp:77] Creating layer ReLU5
I0307 17:06:48.026212 28053 net.cpp:84] Creating Layer ReLU5
I0307 17:06:48.026216 28053 net.cpp:406] ReLU5 <- Eltwise2
I0307 17:06:48.026221 28053 net.cpp:367] ReLU5 -> Eltwise2 (in-place)
I0307 17:06:48.026821 28053 net.cpp:122] Setting up ReLU5
I0307 17:06:48.026834 28053 net.cpp:129] Top shape: 100 16 32 32 (1638400)
I0307 17:06:48.026836 28053 net.cpp:137] Memory required for data: 171623600
I0307 17:06:48.026840 28053 layer_factory.hpp:77] Creating layer Eltwise2_ReLU5_0_split
I0307 17:06:48.026846 28053 net.cpp:84] Creating Layer Eltwise2_ReLU5_0_split
I0307 17:06:48.026850 28053 net.cpp:406] Eltwise2_ReLU5_0_split <- Eltwise2
I0307 17:06:48.026857 28053 net.cpp:380] Eltwise2_ReLU5_0_split -> Eltwise2_ReLU5_0_split_0
I0307 17:06:48.026865 28053 net.cpp:380] Eltwise2_ReLU5_0_split -> Eltwise2_ReLU5_0_split_1
I0307 17:06:48.026922 28053 net.cpp:122] Setting up Eltwise2_ReLU5_0_split
I0307 17:06:48.026932 28053 net.cpp:129] Top shape: 100 16 32 32 (1638400)
I0307 17:06:48.026937 28053 net.cpp:129] Top shape: 100 16 32 32 (1638400)
I0307 17:06:48.026939 28053 net.cpp:137] Memory required for data: 184730800
I0307 17:06:48.026942 28053 layer_factory.hpp:77] Creating layer Convolution6
I0307 17:06:48.026953 28053 net.cpp:84] Creating Layer Convolution6
I0307 17:06:48.026962 28053 net.cpp:406] Convolution6 <- Eltwise2_ReLU5_0_split_0
I0307 17:06:48.026968 28053 net.cpp:380] Convolution6 -> Convolution6
I0307 17:06:48.029856 28053 net.cpp:122] Setting up Convolution6
I0307 17:06:48.029875 28053 net.cpp:129] Top shape: 100 16 32 32 (1638400)
I0307 17:06:48.029878 28053 net.cpp:137] Memory required for data: 191284400
I0307 17:06:48.029886 28053 layer_factory.hpp:77] Creating layer BatchNorm6
I0307 17:06:48.029894 28053 net.cpp:84] Creating Layer BatchNorm6
I0307 17:06:48.029901 28053 net.cpp:406] BatchNorm6 <- Convolution6
I0307 17:06:48.029906 28053 net.cpp:367] BatchNorm6 -> Convolution6 (in-place)
I0307 17:06:48.030153 28053 net.cpp:122] Setting up BatchNorm6
I0307 17:06:48.030162 28053 net.cpp:129] Top shape: 100 16 32 32 (1638400)
I0307 17:06:48.030166 28053 net.cpp:137] Memory required for data: 197838000
I0307 17:06:48.030189 28053 layer_factory.hpp:77] Creating layer Scale6
I0307 17:06:48.030194 28053 net.cpp:84] Creating Layer Scale6
I0307 17:06:48.030198 28053 net.cpp:406] Scale6 <- Convolution6
I0307 17:06:48.030203 28053 net.cpp:367] Scale6 -> Convolution6 (in-place)
I0307 17:06:48.030261 28053 layer_factory.hpp:77] Creating layer Scale6
I0307 17:06:48.030400 28053 net.cpp:122] Setting up Scale6
I0307 17:06:48.030409 28053 net.cpp:129] Top shape: 100 16 32 32 (1638400)
I0307 17:06:48.030412 28053 net.cpp:137] Memory required for data: 204391600
I0307 17:06:48.030418 28053 layer_factory.hpp:77] Creating layer ReLU6
I0307 17:06:48.030424 28053 net.cpp:84] Creating Layer ReLU6
I0307 17:06:48.030427 28053 net.cpp:406] ReLU6 <- Convolution6
I0307 17:06:48.030433 28053 net.cpp:367] ReLU6 -> Convolution6 (in-place)
I0307 17:06:48.031466 28053 net.cpp:122] Setting up ReLU6
I0307 17:06:48.031481 28053 net.cpp:129] Top shape: 100 16 32 32 (1638400)
I0307 17:06:48.031484 28053 net.cpp:137] Memory required for data: 210945200
I0307 17:06:48.031488 28053 layer_factory.hpp:77] Creating layer Convolution7
I0307 17:06:48.031500 28053 net.cpp:84] Creating Layer Convolution7
I0307 17:06:48.031507 28053 net.cpp:406] Convolution7 <- Convolution6
I0307 17:06:48.031515 28053 net.cpp:380] Convolution7 -> Convolution7
I0307 17:06:48.034214 28053 net.cpp:122] Setting up Convolution7
I0307 17:06:48.034229 28053 net.cpp:129] Top shape: 100 16 32 32 (1638400)
I0307 17:06:48.034234 28053 net.cpp:137] Memory required for data: 217498800
I0307 17:06:48.034240 28053 layer_factory.hpp:77] Creating layer BatchNorm7
I0307 17:06:48.034253 28053 net.cpp:84] Creating Layer BatchNorm7
I0307 17:06:48.034257 28053 net.cpp:406] BatchNorm7 <- Convolution7
I0307 17:06:48.034263 28053 net.cpp:367] BatchNorm7 -> Convolution7 (in-place)
I0307 17:06:48.034514 28053 net.cpp:122] Setting up BatchNorm7
I0307 17:06:48.034523 28053 net.cpp:129] Top shape: 100 16 32 32 (1638400)
I0307 17:06:48.034526 28053 net.cpp:137] Memory required for data: 224052400
I0307 17:06:48.034533 28053 layer_factory.hpp:77] Creating layer Scale7
I0307 17:06:48.034539 28053 net.cpp:84] Creating Layer Scale7
I0307 17:06:48.034543 28053 net.cpp:406] Scale7 <- Convolution7
I0307 17:06:48.034549 28053 net.cpp:367] Scale7 -> Convolution7 (in-place)
I0307 17:06:48.034598 28053 layer_factory.hpp:77] Creating layer Scale7
I0307 17:06:48.034739 28053 net.cpp:122] Setting up Scale7
I0307 17:06:48.034749 28053 net.cpp:129] Top shape: 100 16 32 32 (1638400)
I0307 17:06:48.034751 28053 net.cpp:137] Memory required for data: 230606000
I0307 17:06:48.034757 28053 layer_factory.hpp:77] Creating layer Eltwise3
I0307 17:06:48.034765 28053 net.cpp:84] Creating Layer Eltwise3
I0307 17:06:48.034768 28053 net.cpp:406] Eltwise3 <- Eltwise2_ReLU5_0_split_1
I0307 17:06:48.034772 28053 net.cpp:406] Eltwise3 <- Convolution7
I0307 17:06:48.034780 28053 net.cpp:380] Eltwise3 -> Eltwise3
I0307 17:06:48.034809 28053 net.cpp:122] Setting up Eltwise3
I0307 17:06:48.034818 28053 net.cpp:129] Top shape: 100 16 32 32 (1638400)
I0307 17:06:48.034822 28053 net.cpp:137] Memory required for data: 237159600
I0307 17:06:48.034826 28053 layer_factory.hpp:77] Creating layer ReLU7
I0307 17:06:48.034831 28053 net.cpp:84] Creating Layer ReLU7
I0307 17:06:48.034833 28053 net.cpp:406] ReLU7 <- Eltwise3
I0307 17:06:48.034838 28053 net.cpp:367] ReLU7 -> Eltwise3 (in-place)
I0307 17:06:48.035449 28053 net.cpp:122] Setting up ReLU7
I0307 17:06:48.035464 28053 net.cpp:129] Top shape: 100 16 32 32 (1638400)
I0307 17:06:48.035466 28053 net.cpp:137] Memory required for data: 243713200
I0307 17:06:48.035470 28053 layer_factory.hpp:77] Creating layer Eltwise3_ReLU7_0_split
I0307 17:06:48.035476 28053 net.cpp:84] Creating Layer Eltwise3_ReLU7_0_split
I0307 17:06:48.035480 28053 net.cpp:406] Eltwise3_ReLU7_0_split <- Eltwise3
I0307 17:06:48.035486 28053 net.cpp:380] Eltwise3_ReLU7_0_split -> Eltwise3_ReLU7_0_split_0
I0307 17:06:48.035493 28053 net.cpp:380] Eltwise3_ReLU7_0_split -> Eltwise3_ReLU7_0_split_1
I0307 17:06:48.035547 28053 net.cpp:122] Setting up Eltwise3_ReLU7_0_split
I0307 17:06:48.035567 28053 net.cpp:129] Top shape: 100 16 32 32 (1638400)
I0307 17:06:48.035571 28053 net.cpp:129] Top shape: 100 16 32 32 (1638400)
I0307 17:06:48.035574 28053 net.cpp:137] Memory required for data: 256820400
I0307 17:06:48.035578 28053 layer_factory.hpp:77] Creating layer Convolution8
I0307 17:06:48.035591 28053 net.cpp:84] Creating Layer Convolution8
I0307 17:06:48.035595 28053 net.cpp:406] Convolution8 <- Eltwise3_ReLU7_0_split_0
I0307 17:06:48.035601 28053 net.cpp:380] Convolution8 -> Convolution8
I0307 17:06:48.038661 28053 net.cpp:122] Setting up Convolution8
I0307 17:06:48.038677 28053 net.cpp:129] Top shape: 100 32 16 16 (819200)
I0307 17:06:48.038681 28053 net.cpp:137] Memory required for data: 260097200
I0307 17:06:48.038688 28053 layer_factory.hpp:77] Creating layer BatchNorm8
I0307 17:06:48.038695 28053 net.cpp:84] Creating Layer BatchNorm8
I0307 17:06:48.038699 28053 net.cpp:406] BatchNorm8 <- Convolution8
I0307 17:06:48.038705 28053 net.cpp:367] BatchNorm8 -> Convolution8 (in-place)
I0307 17:06:48.038950 28053 net.cpp:122] Setting up BatchNorm8
I0307 17:06:48.038960 28053 net.cpp:129] Top shape: 100 32 16 16 (819200)
I0307 17:06:48.038964 28053 net.cpp:137] Memory required for data: 263374000
I0307 17:06:48.038970 28053 layer_factory.hpp:77] Creating layer Scale8
I0307 17:06:48.038977 28053 net.cpp:84] Creating Layer Scale8
I0307 17:06:48.038980 28053 net.cpp:406] Scale8 <- Convolution8
I0307 17:06:48.038985 28053 net.cpp:367] Scale8 -> Convolution8 (in-place)
I0307 17:06:48.039036 28053 layer_factory.hpp:77] Creating layer Scale8
I0307 17:06:48.039177 28053 net.cpp:122] Setting up Scale8
I0307 17:06:48.039186 28053 net.cpp:129] Top shape: 100 32 16 16 (819200)
I0307 17:06:48.039189 28053 net.cpp:137] Memory required for data: 266650800
I0307 17:06:48.039196 28053 layer_factory.hpp:77] Creating layer Convolution9
I0307 17:06:48.039208 28053 net.cpp:84] Creating Layer Convolution9
I0307 17:06:48.039213 28053 net.cpp:406] Convolution9 <- Eltwise3_ReLU7_0_split_1
I0307 17:06:48.039219 28053 net.cpp:380] Convolution9 -> Convolution9
I0307 17:06:48.041857 28053 net.cpp:122] Setting up Convolution9
I0307 17:06:48.041874 28053 net.cpp:129] Top shape: 100 32 16 16 (819200)
I0307 17:06:48.041878 28053 net.cpp:137] Memory required for data: 269927600
I0307 17:06:48.041885 28053 layer_factory.hpp:77] Creating layer BatchNorm9
I0307 17:06:48.041893 28053 net.cpp:84] Creating Layer BatchNorm9
I0307 17:06:48.041896 28053 net.cpp:406] BatchNorm9 <- Convolution9
I0307 17:06:48.041903 28053 net.cpp:367] BatchNorm9 -> Convolution9 (in-place)
I0307 17:06:48.042146 28053 net.cpp:122] Setting up BatchNorm9
I0307 17:06:48.042155 28053 net.cpp:129] Top shape: 100 32 16 16 (819200)
I0307 17:06:48.042158 28053 net.cpp:137] Memory required for data: 273204400
I0307 17:06:48.042165 28053 layer_factory.hpp:77] Creating layer Scale9
I0307 17:06:48.042171 28053 net.cpp:84] Creating Layer Scale9
I0307 17:06:48.042174 28053 net.cpp:406] Scale9 <- Convolution9
I0307 17:06:48.042179 28053 net.cpp:367] Scale9 -> Convolution9 (in-place)
I0307 17:06:48.042229 28053 layer_factory.hpp:77] Creating layer Scale9
I0307 17:06:48.042371 28053 net.cpp:122] Setting up Scale9
I0307 17:06:48.042381 28053 net.cpp:129] Top shape: 100 32 16 16 (819200)
I0307 17:06:48.042384 28053 net.cpp:137] Memory required for data: 276481200
I0307 17:06:48.042389 28053 layer_factory.hpp:77] Creating layer ReLU8
I0307 17:06:48.042394 28053 net.cpp:84] Creating Layer ReLU8
I0307 17:06:48.042398 28053 net.cpp:406] ReLU8 <- Convolution9
I0307 17:06:48.042402 28053 net.cpp:367] ReLU8 -> Convolution9 (in-place)
I0307 17:06:48.043000 28053 net.cpp:122] Setting up ReLU8
I0307 17:06:48.043012 28053 net.cpp:129] Top shape: 100 32 16 16 (819200)
I0307 17:06:48.043016 28053 net.cpp:137] Memory required for data: 279758000
I0307 17:06:48.043020 28053 layer_factory.hpp:77] Creating layer Convolution10
I0307 17:06:48.043030 28053 net.cpp:84] Creating Layer Convolution10
I0307 17:06:48.043035 28053 net.cpp:406] Convolution10 <- Convolution9
I0307 17:06:48.043053 28053 net.cpp:380] Convolution10 -> Convolution10
I0307 17:06:48.046439 28053 net.cpp:122] Setting up Convolution10
I0307 17:06:48.046458 28053 net.cpp:129] Top shape: 100 32 16 16 (819200)
I0307 17:06:48.046461 28053 net.cpp:137] Memory required for data: 283034800
I0307 17:06:48.046479 28053 layer_factory.hpp:77] Creating layer BatchNorm10
I0307 17:06:48.046489 28053 net.cpp:84] Creating Layer BatchNorm10
I0307 17:06:48.046494 28053 net.cpp:406] BatchNorm10 <- Convolution10
I0307 17:06:48.046499 28053 net.cpp:367] BatchNorm10 -> Convolution10 (in-place)
I0307 17:06:48.046757 28053 net.cpp:122] Setting up BatchNorm10
I0307 17:06:48.046767 28053 net.cpp:129] Top shape: 100 32 16 16 (819200)
I0307 17:06:48.046772 28053 net.cpp:137] Memory required for data: 286311600
I0307 17:06:48.046779 28053 layer_factory.hpp:77] Creating layer Scale10
I0307 17:06:48.046785 28053 net.cpp:84] Creating Layer Scale10
I0307 17:06:48.046788 28053 net.cpp:406] Scale10 <- Convolution10
I0307 17:06:48.046793 28053 net.cpp:367] Scale10 -> Convolution10 (in-place)
I0307 17:06:48.046845 28053 layer_factory.hpp:77] Creating layer Scale10
I0307 17:06:48.046991 28053 net.cpp:122] Setting up Scale10
I0307 17:06:48.047000 28053 net.cpp:129] Top shape: 100 32 16 16 (819200)
I0307 17:06:48.047003 28053 net.cpp:137] Memory required for data: 289588400
I0307 17:06:48.047009 28053 layer_factory.hpp:77] Creating layer Eltwise4
I0307 17:06:48.047015 28053 net.cpp:84] Creating Layer Eltwise4
I0307 17:06:48.047019 28053 net.cpp:406] Eltwise4 <- Convolution8
I0307 17:06:48.047024 28053 net.cpp:406] Eltwise4 <- Convolution10
I0307 17:06:48.047029 28053 net.cpp:380] Eltwise4 -> Eltwise4
I0307 17:06:48.047055 28053 net.cpp:122] Setting up Eltwise4
I0307 17:06:48.047062 28053 net.cpp:129] Top shape: 100 32 16 16 (819200)
I0307 17:06:48.047066 28053 net.cpp:137] Memory required for data: 292865200
I0307 17:06:48.047070 28053 layer_factory.hpp:77] Creating layer ReLU9
I0307 17:06:48.047075 28053 net.cpp:84] Creating Layer ReLU9
I0307 17:06:48.047077 28053 net.cpp:406] ReLU9 <- Eltwise4
I0307 17:06:48.047082 28053 net.cpp:367] ReLU9 -> Eltwise4 (in-place)
I0307 17:06:48.047695 28053 net.cpp:122] Setting up ReLU9
I0307 17:06:48.047708 28053 net.cpp:129] Top shape: 100 32 16 16 (819200)
I0307 17:06:48.047711 28053 net.cpp:137] Memory required for data: 296142000
I0307 17:06:48.047714 28053 layer_factory.hpp:77] Creating layer Eltwise4_ReLU9_0_split
I0307 17:06:48.047722 28053 net.cpp:84] Creating Layer Eltwise4_ReLU9_0_split
I0307 17:06:48.047725 28053 net.cpp:406] Eltwise4_ReLU9_0_split <- Eltwise4
I0307 17:06:48.047731 28053 net.cpp:380] Eltwise4_ReLU9_0_split -> Eltwise4_ReLU9_0_split_0
I0307 17:06:48.047739 28053 net.cpp:380] Eltwise4_ReLU9_0_split -> Eltwise4_ReLU9_0_split_1
I0307 17:06:48.047793 28053 net.cpp:122] Setting up Eltwise4_ReLU9_0_split
I0307 17:06:48.047801 28053 net.cpp:129] Top shape: 100 32 16 16 (819200)
I0307 17:06:48.047806 28053 net.cpp:129] Top shape: 100 32 16 16 (819200)
I0307 17:06:48.047808 28053 net.cpp:137] Memory required for data: 302695600
I0307 17:06:48.047812 28053 layer_factory.hpp:77] Creating layer Convolution11
I0307 17:06:48.047823 28053 net.cpp:84] Creating Layer Convolution11
I0307 17:06:48.047828 28053 net.cpp:406] Convolution11 <- Eltwise4_ReLU9_0_split_0
I0307 17:06:48.047835 28053 net.cpp:380] Convolution11 -> Convolution11
I0307 17:06:48.051126 28053 net.cpp:122] Setting up Convolution11
I0307 17:06:48.051143 28053 net.cpp:129] Top shape: 100 32 16 16 (819200)
I0307 17:06:48.051146 28053 net.cpp:137] Memory required for data: 305972400
I0307 17:06:48.051153 28053 layer_factory.hpp:77] Creating layer BatchNorm11
I0307 17:06:48.051162 28053 net.cpp:84] Creating Layer BatchNorm11
I0307 17:06:48.051165 28053 net.cpp:406] BatchNorm11 <- Convolution11
I0307 17:06:48.051174 28053 net.cpp:367] BatchNorm11 -> Convolution11 (in-place)
I0307 17:06:48.051425 28053 net.cpp:122] Setting up BatchNorm11
I0307 17:06:48.051434 28053 net.cpp:129] Top shape: 100 32 16 16 (819200)
I0307 17:06:48.051451 28053 net.cpp:137] Memory required for data: 309249200
I0307 17:06:48.051458 28053 layer_factory.hpp:77] Creating layer Scale11
I0307 17:06:48.051465 28053 net.cpp:84] Creating Layer Scale11
I0307 17:06:48.051468 28053 net.cpp:406] Scale11 <- Convolution11
I0307 17:06:48.051476 28053 net.cpp:367] Scale11 -> Convolution11 (in-place)
I0307 17:06:48.051529 28053 layer_factory.hpp:77] Creating layer Scale11
I0307 17:06:48.051677 28053 net.cpp:122] Setting up Scale11
I0307 17:06:48.051687 28053 net.cpp:129] Top shape: 100 32 16 16 (819200)
I0307 17:06:48.051689 28053 net.cpp:137] Memory required for data: 312526000
I0307 17:06:48.051695 28053 layer_factory.hpp:77] Creating layer ReLU10
I0307 17:06:48.051702 28053 net.cpp:84] Creating Layer ReLU10
I0307 17:06:48.051704 28053 net.cpp:406] ReLU10 <- Convolution11
I0307 17:06:48.051710 28053 net.cpp:367] ReLU10 -> Convolution11 (in-place)
I0307 17:06:48.052734 28053 net.cpp:122] Setting up ReLU10
I0307 17:06:48.052749 28053 net.cpp:129] Top shape: 100 32 16 16 (819200)
I0307 17:06:48.052753 28053 net.cpp:137] Memory required for data: 315802800
I0307 17:06:48.052757 28053 layer_factory.hpp:77] Creating layer Convolution12
I0307 17:06:48.052768 28053 net.cpp:84] Creating Layer Convolution12
I0307 17:06:48.052772 28053 net.cpp:406] Convolution12 <- Convolution11
I0307 17:06:48.052788 28053 net.cpp:380] Convolution12 -> Convolution12
I0307 17:06:48.055533 28053 net.cpp:122] Setting up Convolution12
I0307 17:06:48.055549 28053 net.cpp:129] Top shape: 100 32 16 16 (819200)
I0307 17:06:48.055553 28053 net.cpp:137] Memory required for data: 319079600
I0307 17:06:48.055560 28053 layer_factory.hpp:77] Creating layer BatchNorm12
I0307 17:06:48.055567 28053 net.cpp:84] Creating Layer BatchNorm12
I0307 17:06:48.055572 28053 net.cpp:406] BatchNorm12 <- Convolution12
I0307 17:06:48.055577 28053 net.cpp:367] BatchNorm12 -> Convolution12 (in-place)
I0307 17:06:48.055827 28053 net.cpp:122] Setting up BatchNorm12
I0307 17:06:48.055835 28053 net.cpp:129] Top shape: 100 32 16 16 (819200)
I0307 17:06:48.055838 28053 net.cpp:137] Memory required for data: 322356400
I0307 17:06:48.055845 28053 layer_factory.hpp:77] Creating layer Scale12
I0307 17:06:48.055851 28053 net.cpp:84] Creating Layer Scale12
I0307 17:06:48.055855 28053 net.cpp:406] Scale12 <- Convolution12
I0307 17:06:48.055861 28053 net.cpp:367] Scale12 -> Convolution12 (in-place)
I0307 17:06:48.055912 28053 layer_factory.hpp:77] Creating layer Scale12
I0307 17:06:48.056062 28053 net.cpp:122] Setting up Scale12
I0307 17:06:48.056071 28053 net.cpp:129] Top shape: 100 32 16 16 (819200)
I0307 17:06:48.056074 28053 net.cpp:137] Memory required for data: 325633200
I0307 17:06:48.056080 28053 layer_factory.hpp:77] Creating layer Eltwise5
I0307 17:06:48.056087 28053 net.cpp:84] Creating Layer Eltwise5
I0307 17:06:48.056090 28053 net.cpp:406] Eltwise5 <- Eltwise4_ReLU9_0_split_1
I0307 17:06:48.056095 28053 net.cpp:406] Eltwise5 <- Convolution12
I0307 17:06:48.056102 28053 net.cpp:380] Eltwise5 -> Eltwise5
I0307 17:06:48.056129 28053 net.cpp:122] Setting up Eltwise5
I0307 17:06:48.056138 28053 net.cpp:129] Top shape: 100 32 16 16 (819200)
I0307 17:06:48.056141 28053 net.cpp:137] Memory required for data: 328910000
I0307 17:06:48.056145 28053 layer_factory.hpp:77] Creating layer ReLU11
I0307 17:06:48.056150 28053 net.cpp:84] Creating Layer ReLU11
I0307 17:06:48.056154 28053 net.cpp:406] ReLU11 <- Eltwise5
I0307 17:06:48.056159 28053 net.cpp:367] ReLU11 -> Eltwise5 (in-place)
I0307 17:06:48.056762 28053 net.cpp:122] Setting up ReLU11
I0307 17:06:48.056782 28053 net.cpp:129] Top shape: 100 32 16 16 (819200)
I0307 17:06:48.056787 28053 net.cpp:137] Memory required for data: 332186800
I0307 17:06:48.056790 28053 layer_factory.hpp:77] Creating layer Eltwise5_ReLU11_0_split
I0307 17:06:48.056795 28053 net.cpp:84] Creating Layer Eltwise5_ReLU11_0_split
I0307 17:06:48.056799 28053 net.cpp:406] Eltwise5_ReLU11_0_split <- Eltwise5
I0307 17:06:48.056804 28053 net.cpp:380] Eltwise5_ReLU11_0_split -> Eltwise5_ReLU11_0_split_0
I0307 17:06:48.056813 28053 net.cpp:380] Eltwise5_ReLU11_0_split -> Eltwise5_ReLU11_0_split_1
I0307 17:06:48.056887 28053 net.cpp:122] Setting up Eltwise5_ReLU11_0_split
I0307 17:06:48.056900 28053 net.cpp:129] Top shape: 100 32 16 16 (819200)
I0307 17:06:48.056905 28053 net.cpp:129] Top shape: 100 32 16 16 (819200)
I0307 17:06:48.056907 28053 net.cpp:137] Memory required for data: 338740400
I0307 17:06:48.056911 28053 layer_factory.hpp:77] Creating layer Convolution13
I0307 17:06:48.056921 28053 net.cpp:84] Creating Layer Convolution13
I0307 17:06:48.056926 28053 net.cpp:406] Convolution13 <- Eltwise5_ReLU11_0_split_0
I0307 17:06:48.056932 28053 net.cpp:380] Convolution13 -> Convolution13
I0307 17:06:48.060061 28053 net.cpp:122] Setting up Convolution13
I0307 17:06:48.060079 28053 net.cpp:129] Top shape: 100 32 16 16 (819200)
I0307 17:06:48.060082 28053 net.cpp:137] Memory required for data: 342017200
I0307 17:06:48.060089 28053 layer_factory.hpp:77] Creating layer BatchNorm13
I0307 17:06:48.060096 28053 net.cpp:84] Creating Layer BatchNorm13
I0307 17:06:48.060101 28053 net.cpp:406] BatchNorm13 <- Convolution13
I0307 17:06:48.060107 28053 net.cpp:367] BatchNorm13 -> Convolution13 (in-place)
I0307 17:06:48.060359 28053 net.cpp:122] Setting up BatchNorm13
I0307 17:06:48.060370 28053 net.cpp:129] Top shape: 100 32 16 16 (819200)
I0307 17:06:48.060374 28053 net.cpp:137] Memory required for data: 345294000
I0307 17:06:48.060380 28053 layer_factory.hpp:77] Creating layer Scale13
I0307 17:06:48.060385 28053 net.cpp:84] Creating Layer Scale13
I0307 17:06:48.060389 28053 net.cpp:406] Scale13 <- Convolution13
I0307 17:06:48.060395 28053 net.cpp:367] Scale13 -> Convolution13 (in-place)
I0307 17:06:48.060447 28053 layer_factory.hpp:77] Creating layer Scale13
I0307 17:06:48.060595 28053 net.cpp:122] Setting up Scale13
I0307 17:06:48.060606 28053 net.cpp:129] Top shape: 100 32 16 16 (819200)
I0307 17:06:48.060609 28053 net.cpp:137] Memory required for data: 348570800
I0307 17:06:48.060616 28053 layer_factory.hpp:77] Creating layer ReLU12
I0307 17:06:48.060621 28053 net.cpp:84] Creating Layer ReLU12
I0307 17:06:48.060623 28053 net.cpp:406] ReLU12 <- Convolution13
I0307 17:06:48.060628 28053 net.cpp:367] ReLU12 -> Convolution13 (in-place)
I0307 17:06:48.061247 28053 net.cpp:122] Setting up ReLU12
I0307 17:06:48.061260 28053 net.cpp:129] Top shape: 100 32 16 16 (819200)
I0307 17:06:48.061264 28053 net.cpp:137] Memory required for data: 351847600
I0307 17:06:48.061267 28053 layer_factory.hpp:77] Creating layer Convolution14
I0307 17:06:48.061295 28053 net.cpp:84] Creating Layer Convolution14
I0307 17:06:48.061303 28053 net.cpp:406] Convolution14 <- Convolution13
I0307 17:06:48.061311 28053 net.cpp:380] Convolution14 -> Convolution14
I0307 17:06:48.064296 28053 net.cpp:122] Setting up Convolution14
I0307 17:06:48.064313 28053 net.cpp:129] Top shape: 100 32 16 16 (819200)
I0307 17:06:48.064317 28053 net.cpp:137] Memory required for data: 355124400
I0307 17:06:48.064326 28053 layer_factory.hpp:77] Creating layer BatchNorm14
I0307 17:06:48.064332 28053 net.cpp:84] Creating Layer BatchNorm14
I0307 17:06:48.064337 28053 net.cpp:406] BatchNorm14 <- Convolution14
I0307 17:06:48.064343 28053 net.cpp:367] BatchNorm14 -> Convolution14 (in-place)
I0307 17:06:48.064599 28053 net.cpp:122] Setting up BatchNorm14
I0307 17:06:48.064607 28053 net.cpp:129] Top shape: 100 32 16 16 (819200)
I0307 17:06:48.064610 28053 net.cpp:137] Memory required for data: 358401200
I0307 17:06:48.064617 28053 layer_factory.hpp:77] Creating layer Scale14
I0307 17:06:48.064623 28053 net.cpp:84] Creating Layer Scale14
I0307 17:06:48.064627 28053 net.cpp:406] Scale14 <- Convolution14
I0307 17:06:48.064632 28053 net.cpp:367] Scale14 -> Convolution14 (in-place)
I0307 17:06:48.064685 28053 layer_factory.hpp:77] Creating layer Scale14
I0307 17:06:48.064843 28053 net.cpp:122] Setting up Scale14
I0307 17:06:48.064853 28053 net.cpp:129] Top shape: 100 32 16 16 (819200)
I0307 17:06:48.064857 28053 net.cpp:137] Memory required for data: 361678000
I0307 17:06:48.064862 28053 layer_factory.hpp:77] Creating layer Eltwise6
I0307 17:06:48.064883 28053 net.cpp:84] Creating Layer Eltwise6
I0307 17:06:48.064889 28053 net.cpp:406] Eltwise6 <- Eltwise5_ReLU11_0_split_1
I0307 17:06:48.064894 28053 net.cpp:406] Eltwise6 <- Convolution14
I0307 17:06:48.064899 28053 net.cpp:380] Eltwise6 -> Eltwise6
I0307 17:06:48.064930 28053 net.cpp:122] Setting up Eltwise6
I0307 17:06:48.064939 28053 net.cpp:129] Top shape: 100 32 16 16 (819200)
I0307 17:06:48.064941 28053 net.cpp:137] Memory required for data: 364954800
I0307 17:06:48.064945 28053 layer_factory.hpp:77] Creating layer ReLU13
I0307 17:06:48.064951 28053 net.cpp:84] Creating Layer ReLU13
I0307 17:06:48.064955 28053 net.cpp:406] ReLU13 <- Eltwise6
I0307 17:06:48.064961 28053 net.cpp:367] ReLU13 -> Eltwise6 (in-place)
I0307 17:06:48.065984 28053 net.cpp:122] Setting up ReLU13
I0307 17:06:48.065999 28053 net.cpp:129] Top shape: 100 32 16 16 (819200)
I0307 17:06:48.066002 28053 net.cpp:137] Memory required for data: 368231600
I0307 17:06:48.066006 28053 layer_factory.hpp:77] Creating layer Eltwise6_ReLU13_0_split
I0307 17:06:48.066015 28053 net.cpp:84] Creating Layer Eltwise6_ReLU13_0_split
I0307 17:06:48.066017 28053 net.cpp:406] Eltwise6_ReLU13_0_split <- Eltwise6
I0307 17:06:48.066023 28053 net.cpp:380] Eltwise6_ReLU13_0_split -> Eltwise6_ReLU13_0_split_0
I0307 17:06:48.066033 28053 net.cpp:380] Eltwise6_ReLU13_0_split -> Eltwise6_ReLU13_0_split_1
I0307 17:06:48.066098 28053 net.cpp:122] Setting up Eltwise6_ReLU13_0_split
I0307 17:06:48.066108 28053 net.cpp:129] Top shape: 100 32 16 16 (819200)
I0307 17:06:48.066112 28053 net.cpp:129] Top shape: 100 32 16 16 (819200)
I0307 17:06:48.066115 28053 net.cpp:137] Memory required for data: 374785200
I0307 17:06:48.066118 28053 layer_factory.hpp:77] Creating layer Convolution15
I0307 17:06:48.066129 28053 net.cpp:84] Creating Layer Convolution15
I0307 17:06:48.066134 28053 net.cpp:406] Convolution15 <- Eltwise6_ReLU13_0_split_0
I0307 17:06:48.066143 28053 net.cpp:380] Convolution15 -> Convolution15
I0307 17:06:48.069049 28053 net.cpp:122] Setting up Convolution15
I0307 17:06:48.069069 28053 net.cpp:129] Top shape: 100 64 8 8 (409600)
I0307 17:06:48.069073 28053 net.cpp:137] Memory required for data: 376423600
I0307 17:06:48.069082 28053 layer_factory.hpp:77] Creating layer BatchNorm15
I0307 17:06:48.069087 28053 net.cpp:84] Creating Layer BatchNorm15
I0307 17:06:48.069092 28053 net.cpp:406] BatchNorm15 <- Convolution15
I0307 17:06:48.069098 28053 net.cpp:367] BatchNorm15 -> Convolution15 (in-place)
I0307 17:06:48.069356 28053 net.cpp:122] Setting up BatchNorm15
I0307 17:06:48.069365 28053 net.cpp:129] Top shape: 100 64 8 8 (409600)
I0307 17:06:48.069370 28053 net.cpp:137] Memory required for data: 378062000
I0307 17:06:48.069376 28053 layer_factory.hpp:77] Creating layer Scale15
I0307 17:06:48.069382 28053 net.cpp:84] Creating Layer Scale15
I0307 17:06:48.069386 28053 net.cpp:406] Scale15 <- Convolution15
I0307 17:06:48.069391 28053 net.cpp:367] Scale15 -> Convolution15 (in-place)
I0307 17:06:48.069447 28053 layer_factory.hpp:77] Creating layer Scale15
I0307 17:06:48.069595 28053 net.cpp:122] Setting up Scale15
I0307 17:06:48.069607 28053 net.cpp:129] Top shape: 100 64 8 8 (409600)
I0307 17:06:48.069609 28053 net.cpp:137] Memory required for data: 379700400
I0307 17:06:48.069615 28053 layer_factory.hpp:77] Creating layer Convolution16
I0307 17:06:48.069625 28053 net.cpp:84] Creating Layer Convolution16
I0307 17:06:48.069629 28053 net.cpp:406] Convolution16 <- Eltwise6_ReLU13_0_split_1
I0307 17:06:48.069635 28053 net.cpp:380] Convolution16 -> Convolution16
I0307 17:06:48.072499 28053 net.cpp:122] Setting up Convolution16
I0307 17:06:48.072515 28053 net.cpp:129] Top shape: 100 64 8 8 (409600)
I0307 17:06:48.072520 28053 net.cpp:137] Memory required for data: 381338800
I0307 17:06:48.072526 28053 layer_factory.hpp:77] Creating layer BatchNorm16
I0307 17:06:48.072532 28053 net.cpp:84] Creating Layer BatchNorm16
I0307 17:06:48.072536 28053 net.cpp:406] BatchNorm16 <- Convolution16
I0307 17:06:48.072543 28053 net.cpp:367] BatchNorm16 -> Convolution16 (in-place)
I0307 17:06:48.072826 28053 net.cpp:122] Setting up BatchNorm16
I0307 17:06:48.072837 28053 net.cpp:129] Top shape: 100 64 8 8 (409600)
I0307 17:06:48.072841 28053 net.cpp:137] Memory required for data: 382977200
I0307 17:06:48.072849 28053 layer_factory.hpp:77] Creating layer Scale16
I0307 17:06:48.072854 28053 net.cpp:84] Creating Layer Scale16
I0307 17:06:48.072859 28053 net.cpp:406] Scale16 <- Convolution16
I0307 17:06:48.072863 28053 net.cpp:367] Scale16 -> Convolution16 (in-place)
I0307 17:06:48.072918 28053 layer_factory.hpp:77] Creating layer Scale16
I0307 17:06:48.073068 28053 net.cpp:122] Setting up Scale16
I0307 17:06:48.073078 28053 net.cpp:129] Top shape: 100 64 8 8 (409600)
I0307 17:06:48.073081 28053 net.cpp:137] Memory required for data: 384615600
I0307 17:06:48.073087 28053 layer_factory.hpp:77] Creating layer ReLU14
I0307 17:06:48.073093 28053 net.cpp:84] Creating Layer ReLU14
I0307 17:06:48.073096 28053 net.cpp:406] ReLU14 <- Convolution16
I0307 17:06:48.073101 28053 net.cpp:367] ReLU14 -> Convolution16 (in-place)
I0307 17:06:48.074146 28053 net.cpp:122] Setting up ReLU14
I0307 17:06:48.074162 28053 net.cpp:129] Top shape: 100 64 8 8 (409600)
I0307 17:06:48.074165 28053 net.cpp:137] Memory required for data: 386254000
I0307 17:06:48.074169 28053 layer_factory.hpp:77] Creating layer Convolution17
I0307 17:06:48.074182 28053 net.cpp:84] Creating Layer Convolution17
I0307 17:06:48.074187 28053 net.cpp:406] Convolution17 <- Convolution16
I0307 17:06:48.074194 28053 net.cpp:380] Convolution17 -> Convolution17
I0307 17:06:48.078006 28053 net.cpp:122] Setting up Convolution17
I0307 17:06:48.078024 28053 net.cpp:129] Top shape: 100 64 8 8 (409600)
I0307 17:06:48.078028 28053 net.cpp:137] Memory required for data: 387892400
I0307 17:06:48.078035 28053 layer_factory.hpp:77] Creating layer BatchNorm17
I0307 17:06:48.078042 28053 net.cpp:84] Creating Layer BatchNorm17
I0307 17:06:48.078045 28053 net.cpp:406] BatchNorm17 <- Convolution17
I0307 17:06:48.078052 28053 net.cpp:367] BatchNorm17 -> Convolution17 (in-place)
I0307 17:06:48.078320 28053 net.cpp:122] Setting up BatchNorm17
I0307 17:06:48.078330 28053 net.cpp:129] Top shape: 100 64 8 8 (409600)
I0307 17:06:48.078333 28053 net.cpp:137] Memory required for data: 389530800
I0307 17:06:48.078341 28053 layer_factory.hpp:77] Creating layer Scale17
I0307 17:06:48.078346 28053 net.cpp:84] Creating Layer Scale17
I0307 17:06:48.078351 28053 net.cpp:406] Scale17 <- Convolution17
I0307 17:06:48.078356 28053 net.cpp:367] Scale17 -> Convolution17 (in-place)
I0307 17:06:48.078406 28053 layer_factory.hpp:77] Creating layer Scale17
I0307 17:06:48.078558 28053 net.cpp:122] Setting up Scale17
I0307 17:06:48.078567 28053 net.cpp:129] Top shape: 100 64 8 8 (409600)
I0307 17:06:48.078570 28053 net.cpp:137] Memory required for data: 391169200
I0307 17:06:48.078577 28053 layer_factory.hpp:77] Creating layer Eltwise7
I0307 17:06:48.078583 28053 net.cpp:84] Creating Layer Eltwise7
I0307 17:06:48.078588 28053 net.cpp:406] Eltwise7 <- Convolution15
I0307 17:06:48.078591 28053 net.cpp:406] Eltwise7 <- Convolution17
I0307 17:06:48.078596 28053 net.cpp:380] Eltwise7 -> Eltwise7
I0307 17:06:48.078630 28053 net.cpp:122] Setting up Eltwise7
I0307 17:06:48.078639 28053 net.cpp:129] Top shape: 100 64 8 8 (409600)
I0307 17:06:48.078641 28053 net.cpp:137] Memory required for data: 392807600
I0307 17:06:48.078645 28053 layer_factory.hpp:77] Creating layer ReLU15
I0307 17:06:48.078651 28053 net.cpp:84] Creating Layer ReLU15
I0307 17:06:48.078655 28053 net.cpp:406] ReLU15 <- Eltwise7
I0307 17:06:48.078662 28053 net.cpp:367] ReLU15 -> Eltwise7 (in-place)
I0307 17:06:48.079694 28053 net.cpp:122] Setting up ReLU15
I0307 17:06:48.079708 28053 net.cpp:129] Top shape: 100 64 8 8 (409600)
I0307 17:06:48.079712 28053 net.cpp:137] Memory required for data: 394446000
I0307 17:06:48.079716 28053 layer_factory.hpp:77] Creating layer Eltwise7_ReLU15_0_split
I0307 17:06:48.079725 28053 net.cpp:84] Creating Layer Eltwise7_ReLU15_0_split
I0307 17:06:48.079728 28053 net.cpp:406] Eltwise7_ReLU15_0_split <- Eltwise7
I0307 17:06:48.079746 28053 net.cpp:380] Eltwise7_ReLU15_0_split -> Eltwise7_ReLU15_0_split_0
I0307 17:06:48.079753 28053 net.cpp:380] Eltwise7_ReLU15_0_split -> Eltwise7_ReLU15_0_split_1
I0307 17:06:48.079813 28053 net.cpp:122] Setting up Eltwise7_ReLU15_0_split
I0307 17:06:48.079821 28053 net.cpp:129] Top shape: 100 64 8 8 (409600)
I0307 17:06:48.079825 28053 net.cpp:129] Top shape: 100 64 8 8 (409600)
I0307 17:06:48.079828 28053 net.cpp:137] Memory required for data: 397722800
I0307 17:06:48.079833 28053 layer_factory.hpp:77] Creating layer Convolution18
I0307 17:06:48.079843 28053 net.cpp:84] Creating Layer Convolution18
I0307 17:06:48.079846 28053 net.cpp:406] Convolution18 <- Eltwise7_ReLU15_0_split_0
I0307 17:06:48.079854 28053 net.cpp:380] Convolution18 -> Convolution18
I0307 17:06:48.083319 28053 net.cpp:122] Setting up Convolution18
I0307 17:06:48.083335 28053 net.cpp:129] Top shape: 100 64 8 8 (409600)
I0307 17:06:48.083339 28053 net.cpp:137] Memory required for data: 399361200
I0307 17:06:48.083348 28053 layer_factory.hpp:77] Creating layer BatchNorm18
I0307 17:06:48.083354 28053 net.cpp:84] Creating Layer BatchNorm18
I0307 17:06:48.083359 28053 net.cpp:406] BatchNorm18 <- Convolution18
I0307 17:06:48.083365 28053 net.cpp:367] BatchNorm18 -> Convolution18 (in-place)
I0307 17:06:48.083636 28053 net.cpp:122] Setting up BatchNorm18
I0307 17:06:48.083644 28053 net.cpp:129] Top shape: 100 64 8 8 (409600)
I0307 17:06:48.083648 28053 net.cpp:137] Memory required for data: 400999600
I0307 17:06:48.083655 28053 layer_factory.hpp:77] Creating layer Scale18
I0307 17:06:48.083662 28053 net.cpp:84] Creating Layer Scale18
I0307 17:06:48.083665 28053 net.cpp:406] Scale18 <- Convolution18
I0307 17:06:48.083670 28053 net.cpp:367] Scale18 -> Convolution18 (in-place)
I0307 17:06:48.083724 28053 layer_factory.hpp:77] Creating layer Scale18
I0307 17:06:48.083879 28053 net.cpp:122] Setting up Scale18
I0307 17:06:48.083890 28053 net.cpp:129] Top shape: 100 64 8 8 (409600)
I0307 17:06:48.083894 28053 net.cpp:137] Memory required for data: 402638000
I0307 17:06:48.083900 28053 layer_factory.hpp:77] Creating layer ReLU16
I0307 17:06:48.083905 28053 net.cpp:84] Creating Layer ReLU16
I0307 17:06:48.083909 28053 net.cpp:406] ReLU16 <- Convolution18
I0307 17:06:48.083915 28053 net.cpp:367] ReLU16 -> Convolution18 (in-place)
I0307 17:06:48.084540 28053 net.cpp:122] Setting up ReLU16
I0307 17:06:48.084553 28053 net.cpp:129] Top shape: 100 64 8 8 (409600)
I0307 17:06:48.084556 28053 net.cpp:137] Memory required for data: 404276400
I0307 17:06:48.084560 28053 layer_factory.hpp:77] Creating layer Convolution19
I0307 17:06:48.084571 28053 net.cpp:84] Creating Layer Convolution19
I0307 17:06:48.084575 28053 net.cpp:406] Convolution19 <- Convolution18
I0307 17:06:48.084583 28053 net.cpp:380] Convolution19 -> Convolution19
I0307 17:06:48.088599 28053 net.cpp:122] Setting up Convolution19
I0307 17:06:48.088615 28053 net.cpp:129] Top shape: 100 64 8 8 (409600)
I0307 17:06:48.088619 28053 net.cpp:137] Memory required for data: 405914800
I0307 17:06:48.088626 28053 layer_factory.hpp:77] Creating layer BatchNorm19
I0307 17:06:48.088634 28053 net.cpp:84] Creating Layer BatchNorm19
I0307 17:06:48.088639 28053 net.cpp:406] BatchNorm19 <- Convolution19
I0307 17:06:48.088644 28053 net.cpp:367] BatchNorm19 -> Convolution19 (in-place)
I0307 17:06:48.088928 28053 net.cpp:122] Setting up BatchNorm19
I0307 17:06:48.088939 28053 net.cpp:129] Top shape: 100 64 8 8 (409600)
I0307 17:06:48.088943 28053 net.cpp:137] Memory required for data: 407553200
I0307 17:06:48.088966 28053 layer_factory.hpp:77] Creating layer Scale19
I0307 17:06:48.088974 28053 net.cpp:84] Creating Layer Scale19
I0307 17:06:48.088979 28053 net.cpp:406] Scale19 <- Convolution19
I0307 17:06:48.088985 28053 net.cpp:367] Scale19 -> Convolution19 (in-place)
I0307 17:06:48.089040 28053 layer_factory.hpp:77] Creating layer Scale19
I0307 17:06:48.089191 28053 net.cpp:122] Setting up Scale19
I0307 17:06:48.089200 28053 net.cpp:129] Top shape: 100 64 8 8 (409600)
I0307 17:06:48.089205 28053 net.cpp:137] Memory required for data: 409191600
I0307 17:06:48.089223 28053 layer_factory.hpp:77] Creating layer Eltwise8
I0307 17:06:48.089231 28053 net.cpp:84] Creating Layer Eltwise8
I0307 17:06:48.089236 28053 net.cpp:406] Eltwise8 <- Eltwise7_ReLU15_0_split_1
I0307 17:06:48.089239 28053 net.cpp:406] Eltwise8 <- Convolution19
I0307 17:06:48.089246 28053 net.cpp:380] Eltwise8 -> Eltwise8
I0307 17:06:48.089283 28053 net.cpp:122] Setting up Eltwise8
I0307 17:06:48.089291 28053 net.cpp:129] Top shape: 100 64 8 8 (409600)
I0307 17:06:48.089294 28053 net.cpp:137] Memory required for data: 410830000
I0307 17:06:48.089298 28053 layer_factory.hpp:77] Creating layer ReLU17
I0307 17:06:48.089303 28053 net.cpp:84] Creating Layer ReLU17
I0307 17:06:48.089306 28053 net.cpp:406] ReLU17 <- Eltwise8
I0307 17:06:48.089310 28053 net.cpp:367] ReLU17 -> Eltwise8 (in-place)
I0307 17:06:48.089932 28053 net.cpp:122] Setting up ReLU17
I0307 17:06:48.089946 28053 net.cpp:129] Top shape: 100 64 8 8 (409600)
I0307 17:06:48.089948 28053 net.cpp:137] Memory required for data: 412468400
I0307 17:06:48.089952 28053 layer_factory.hpp:77] Creating layer Eltwise8_ReLU17_0_split
I0307 17:06:48.089958 28053 net.cpp:84] Creating Layer Eltwise8_ReLU17_0_split
I0307 17:06:48.089962 28053 net.cpp:406] Eltwise8_ReLU17_0_split <- Eltwise8
I0307 17:06:48.089969 28053 net.cpp:380] Eltwise8_ReLU17_0_split -> Eltwise8_ReLU17_0_split_0
I0307 17:06:48.089977 28053 net.cpp:380] Eltwise8_ReLU17_0_split -> Eltwise8_ReLU17_0_split_1
I0307 17:06:48.090042 28053 net.cpp:122] Setting up Eltwise8_ReLU17_0_split
I0307 17:06:48.090052 28053 net.cpp:129] Top shape: 100 64 8 8 (409600)
I0307 17:06:48.090056 28053 net.cpp:129] Top shape: 100 64 8 8 (409600)
I0307 17:06:48.090059 28053 net.cpp:137] Memory required for data: 415745200
I0307 17:06:48.090062 28053 layer_factory.hpp:77] Creating layer Convolution20
I0307 17:06:48.090075 28053 net.cpp:84] Creating Layer Convolution20
I0307 17:06:48.090078 28053 net.cpp:406] Convolution20 <- Eltwise8_ReLU17_0_split_0
I0307 17:06:48.090085 28053 net.cpp:380] Convolution20 -> Convolution20
I0307 17:06:48.093744 28053 net.cpp:122] Setting up Convolution20
I0307 17:06:48.093760 28053 net.cpp:129] Top shape: 100 64 8 8 (409600)
I0307 17:06:48.093765 28053 net.cpp:137] Memory required for data: 417383600
I0307 17:06:48.093771 28053 layer_factory.hpp:77] Creating layer BatchNorm20
I0307 17:06:48.093780 28053 net.cpp:84] Creating Layer BatchNorm20
I0307 17:06:48.093783 28053 net.cpp:406] BatchNorm20 <- Convolution20
I0307 17:06:48.093788 28053 net.cpp:367] BatchNorm20 -> Convolution20 (in-place)
I0307 17:06:48.094056 28053 net.cpp:122] Setting up BatchNorm20
I0307 17:06:48.094066 28053 net.cpp:129] Top shape: 100 64 8 8 (409600)
I0307 17:06:48.094069 28053 net.cpp:137] Memory required for data: 419022000
I0307 17:06:48.094076 28053 layer_factory.hpp:77] Creating layer Scale20
I0307 17:06:48.094082 28053 net.cpp:84] Creating Layer Scale20
I0307 17:06:48.094085 28053 net.cpp:406] Scale20 <- Convolution20
I0307 17:06:48.094090 28053 net.cpp:367] Scale20 -> Convolution20 (in-place)
I0307 17:06:48.094146 28053 layer_factory.hpp:77] Creating layer Scale20
I0307 17:06:48.094316 28053 net.cpp:122] Setting up Scale20
I0307 17:06:48.094326 28053 net.cpp:129] Top shape: 100 64 8 8 (409600)
I0307 17:06:48.094328 28053 net.cpp:137] Memory required for data: 420660400
I0307 17:06:48.094336 28053 layer_factory.hpp:77] Creating layer ReLU18
I0307 17:06:48.094341 28053 net.cpp:84] Creating Layer ReLU18
I0307 17:06:48.094344 28053 net.cpp:406] ReLU18 <- Convolution20
I0307 17:06:48.094349 28053 net.cpp:367] ReLU18 -> Convolution20 (in-place)
I0307 17:06:48.095438 28053 net.cpp:122] Setting up ReLU18
I0307 17:06:48.095456 28053 net.cpp:129] Top shape: 100 64 8 8 (409600)
I0307 17:06:48.095460 28053 net.cpp:137] Memory required for data: 422298800
I0307 17:06:48.095464 28053 layer_factory.hpp:77] Creating layer Convolution21
I0307 17:06:48.095476 28053 net.cpp:84] Creating Layer Convolution21
I0307 17:06:48.095480 28053 net.cpp:406] Convolution21 <- Convolution20
I0307 17:06:48.095504 28053 net.cpp:380] Convolution21 -> Convolution21
I0307 17:06:48.099164 28053 net.cpp:122] Setting up Convolution21
I0307 17:06:48.099181 28053 net.cpp:129] Top shape: 100 64 8 8 (409600)
I0307 17:06:48.099185 28053 net.cpp:137] Memory required for data: 423937200
I0307 17:06:48.099193 28053 layer_factory.hpp:77] Creating layer BatchNorm21
I0307 17:06:48.099205 28053 net.cpp:84] Creating Layer BatchNorm21
I0307 17:06:48.099211 28053 net.cpp:406] BatchNorm21 <- Convolution21
I0307 17:06:48.099220 28053 net.cpp:367] BatchNorm21 -> Convolution21 (in-place)
I0307 17:06:48.099522 28053 net.cpp:122] Setting up BatchNorm21
I0307 17:06:48.099534 28053 net.cpp:129] Top shape: 100 64 8 8 (409600)
I0307 17:06:48.099537 28053 net.cpp:137] Memory required for data: 425575600
I0307 17:06:48.099545 28053 layer_factory.hpp:77] Creating layer Scale21
I0307 17:06:48.099550 28053 net.cpp:84] Creating Layer Scale21
I0307 17:06:48.099555 28053 net.cpp:406] Scale21 <- Convolution21
I0307 17:06:48.099558 28053 net.cpp:367] Scale21 -> Convolution21 (in-place)
I0307 17:06:48.099617 28053 layer_factory.hpp:77] Creating layer Scale21
I0307 17:06:48.099781 28053 net.cpp:122] Setting up Scale21
I0307 17:06:48.099792 28053 net.cpp:129] Top shape: 100 64 8 8 (409600)
I0307 17:06:48.099794 28053 net.cpp:137] Memory required for data: 427214000
I0307 17:06:48.099802 28053 layer_factory.hpp:77] Creating layer Eltwise9
I0307 17:06:48.099808 28053 net.cpp:84] Creating Layer Eltwise9
I0307 17:06:48.099812 28053 net.cpp:406] Eltwise9 <- Eltwise8_ReLU17_0_split_1
I0307 17:06:48.099817 28053 net.cpp:406] Eltwise9 <- Convolution21
I0307 17:06:48.099822 28053 net.cpp:380] Eltwise9 -> Eltwise9
I0307 17:06:48.099856 28053 net.cpp:122] Setting up Eltwise9
I0307 17:06:48.099867 28053 net.cpp:129] Top shape: 100 64 8 8 (409600)
I0307 17:06:48.099870 28053 net.cpp:137] Memory required for data: 428852400
I0307 17:06:48.099874 28053 layer_factory.hpp:77] Creating layer ReLU19
I0307 17:06:48.099879 28053 net.cpp:84] Creating Layer ReLU19
I0307 17:06:48.099882 28053 net.cpp:406] ReLU19 <- Eltwise9
I0307 17:06:48.099887 28053 net.cpp:367] ReLU19 -> Eltwise9 (in-place)
I0307 17:06:48.100510 28053 net.cpp:122] Setting up ReLU19
I0307 17:06:48.100524 28053 net.cpp:129] Top shape: 100 64 8 8 (409600)
I0307 17:06:48.100528 28053 net.cpp:137] Memory required for data: 430490800
I0307 17:06:48.100533 28053 layer_factory.hpp:77] Creating layer Pooling1
I0307 17:06:48.100539 28053 net.cpp:84] Creating Layer Pooling1
I0307 17:06:48.100543 28053 net.cpp:406] Pooling1 <- Eltwise9
I0307 17:06:48.100550 28053 net.cpp:380] Pooling1 -> Pooling1
I0307 17:06:48.101755 28053 net.cpp:122] Setting up Pooling1
I0307 17:06:48.101770 28053 net.cpp:129] Top shape: 100 64 1 1 (6400)
I0307 17:06:48.101775 28053 net.cpp:137] Memory required for data: 430516400
I0307 17:06:48.101780 28053 layer_factory.hpp:77] Creating layer InnerProduct1
I0307 17:06:48.101789 28053 net.cpp:84] Creating Layer InnerProduct1
I0307 17:06:48.101794 28053 net.cpp:406] InnerProduct1 <- Pooling1
I0307 17:06:48.101801 28053 net.cpp:380] InnerProduct1 -> InnerProduct1
I0307 17:06:48.102010 28053 net.cpp:122] Setting up InnerProduct1
I0307 17:06:48.102018 28053 net.cpp:129] Top shape: 100 10 (1000)
I0307 17:06:48.102022 28053 net.cpp:137] Memory required for data: 430520400
I0307 17:06:48.102031 28053 layer_factory.hpp:77] Creating layer InnerProduct1_InnerProduct1_0_split
I0307 17:06:48.102038 28053 net.cpp:84] Creating Layer InnerProduct1_InnerProduct1_0_split
I0307 17:06:48.102041 28053 net.cpp:406] InnerProduct1_InnerProduct1_0_split <- InnerProduct1
I0307 17:06:48.102051 28053 net.cpp:380] InnerProduct1_InnerProduct1_0_split -> InnerProduct1_InnerProduct1_0_split_0
I0307 17:06:48.102057 28053 net.cpp:380] InnerProduct1_InnerProduct1_0_split -> InnerProduct1_InnerProduct1_0_split_1
I0307 17:06:48.102113 28053 net.cpp:122] Setting up InnerProduct1_InnerProduct1_0_split
I0307 17:06:48.102120 28053 net.cpp:129] Top shape: 100 10 (1000)
I0307 17:06:48.102124 28053 net.cpp:129] Top shape: 100 10 (1000)
I0307 17:06:48.102139 28053 net.cpp:137] Memory required for data: 430528400
I0307 17:06:48.102144 28053 layer_factory.hpp:77] Creating layer SoftmaxWithLoss1
I0307 17:06:48.102149 28053 net.cpp:84] Creating Layer SoftmaxWithLoss1
I0307 17:06:48.102152 28053 net.cpp:406] SoftmaxWithLoss1 <- InnerProduct1_InnerProduct1_0_split_0
I0307 17:06:48.102157 28053 net.cpp:406] SoftmaxWithLoss1 <- label_cifar_1_split_0
…
